MLP/model-MLP.tar (torch, 166747 bytes, 5 tensors)

differentiable_model.linear1.weight f4 [200, 2]
0	0x4006eace	2.1080813
1	0x4000375f	2.0033796
2	0x40245a1c	2.5679998
3	0xbf9866c2	-1.1906359
4	0x401103d2	2.2658582
5	0xc003f29d	-2.061683
6	0xc01df39a	-2.4679933
7	0x3ff61f48	1.9228296
8	0xc032d126	-2.7940154
9	0x3fa14500	1.2599182
10	0x405f408b	3.4883144
11	0xbfb20176	-1.3906696
12	0x4049a600	3.1507568
13	0xbfc35439	-1.5260078
14	0xc0534d9b	-3.3016117
15	0x3fc73052	1.5561621
16	0x3baaacc0	0.0052085817
17	0xbff75a45	-1.9324423
18	0x403c2fe8	2.940424
19	0x3e8a8dd5	0.27061334
20	0x404d70a9	3.2100012
21	0xbfb5a474	-1.4190812
22	0x40152c3d	2.330825
23	0xbfaac73a	-1.3342049
24	0x3cfceb53	0.03087393
25	0x400b2f84	2.1747751
26	0x4040650e	3.006168
27	0x3fca34ed	1.5797402
28	0xc007ad67	-2.1199586
29	0x3fdc3014	1.7202172
30	0x402a0fac	2.6572065
31	0xbfc79192	-1.55913
32	0xbfe0251f	-1.7511328
33	0xbf94f6a2	-1.1637766
34	0xc003489f	-2.0513074
35	0xbff2bcc3	-1.8963856
36	0xc019d636	-2.4036994
37	0x4001781c	2.022956
38	0xc0238b2b	-2.5553691
39	0xbfbf6b1c	-1.4954562
40	0x401d7a95	2.4606068
41	0xc00466e1	-2.0687792
42	0xc023c9a6	-2.5591826
43	0x3fa11b4e	1.2586458
44	0xc01b5ec9	-2.4276602
45	0x3ff98345	1.9493185
46	0x405c55fd	3.4427483
47	0x3f1cfb62	0.6132108
48	0x401c1ae9	2.4391425
49	0xc00368ae	-2.0532641
50	0xc04b4a89	-3.1764243
51	0x3fb1ff9a	1.3906128
52	0xc04d90c0	-3.2119598
53	0x3fb4d881	1.4128572
54	0x3e657750	0.22408795
55	0xc00ad1fc	-2.1690664
56	0xc028034f	-2.625202
57	0x3fb74e63	1.4320797
58	0x400f20ca	2.2363763
59	0xc0051c20	-2.0798416
60	0xc050af0f	-3.2606847
61	0xbf3c3ad5	-0.7352727
62	0x404391f9	3.0557845
63	0x3f0ac24d	0.5420273
64	0x3e55cd33	0.20879059
65	0x3fcad037	1.5844792
66	0x401f7e00	2.4920654
67	0xbfa20dcb	-1.2660459
68	0xc040c670	-3.0121117
69	0x3f932454	1.1495461
70	0xc041829f	-3.0235975
71	0xbfa4cdac	-1.2875266
72	0x403824a0	2.8772354
73	0xbfb3fa71	-1.4060804
74	0xbed53658	-0.41643023
75	0xbfd1ec63	-1.6400265
76	0x405db2fb	3.464049
77	0x3f8b860f	1.0900286
78	0x4036d7fa	2.8569322
79	0xbf7fe123	-0.99952906
80	0x4016c572	2.355801
81	0xc00486d6	-2.0707297
82	0x400f6cfa	2.2410264
83	0xc003f278	-2.061674
84	0x40461722	3.095162
85	0x3f842e5a	1.0326645
86	0x3dd144fb	0.10218235
87	0x400825ee	2.127315
88	0x401cb11a	2.4483094
89	0xbfeeb51b	-1.8649019
90	0x404954d4	3.1458025
91	0x3f95b060	1.169445
92	0xc019f3ab	-2.4054973
93	0x3fa8562f	1.3151301
94	0xc0195bc9	-2.3962271
95	0x3ff2da47	1.8972863
96	0x40520534	3.2815676
97	0xbfbdbff1	-1.4824201
98	0xbe075a20	-0.13217974
99	0xc00b17f7	-2.1733377
100	0xc0146fa3	-2.3193138
101	0x40031a80	2.0484924
102	0xc015142b	-2.329356
103	0x3ff3a61f	1.9035071
104	0x4042fcc6	3.046678
105	0xbf97fd71	-1.1874219
106	0x4026ca83	2.6061103
107	0xbf99c029	-1.2011768
108	0x402a324b	2.6593196
109	0xbfc8628d	-1.5655075
110	0x4019ac3e	2.4011378
111	0xbfffb635	-1.997748
112	0x4010990d	2.2593415
113	0x3fbffbf6	1.4998767
114	0x401ea6f7	2.4789407
115	0xc0033b08	-2.050478
116	0xc0196912	-2.397038
117	0x40039e02	2.056519
118	0xbf97d891	-1.1862966
119	0xc00447a2	-2.0668721
120	0xc01f0cc1	-2.4851534
121	0x400273a2	2.0383077
122	0xc0428fc6	-3.0400252
123	0xbfcecae7	-1.6155671
124	0x402d9753	2.712361
125	0xbf9221e0	-1.1416588
126	0x4047dbdf	3.1227949
127	0x3fc1a0c2	1.5127184
128	0x404251cd	3.0362427
129	0xbfa5c5bb	-1.2950968
130	0xc02f5a0e	-2.7398715
131	0x3f71247d	0.941963
132	0xc04c7c91	-3.195103
133	0xbfc70c67	-1.555066
134	0x402cb22a	2.6983743
135	0xbfcf5ee4	-1.6200833
136	0xc01a1996	-2.4078116
137	0x4003fc5a	2.0622773
138	0x3fa17d48	1.2616358
139	0xbfe79c44	-1.8094563
140	0xc026c1a3	-2.6055686
141	0x3fc070ed	1.5034462
142	0x3f4d2f52	0.8015033
143	0x4005aea9	2.0887854
144	0xc02f8887	-2.742708
145	0x3ff0299a	1.8762696
146	0xc031f20f	-2.780399
147	0x3fac99b8	1.3484411
148	0xbf341523	-0.7034475
149	0x3ff73650	1.931345
150	0x4013c1f1	2.3087122
151	0xbff9b1a5	-1.9507338
152	0xc01e373b	-2.472121
153	0x40022ecf	2.034107
154	0x40231205	2.5479748
155	0xbfa18a1c	-1.2620273
156	0xc01a4157	-2.410238
157	0x4003d0bb	2.059615
158	0x40196ed6	2.39739
159	0xc003f1bb	-2.061629
160	0xc0284b22	-2.6295857
161	0x400382f1	2.054867
162	0xc020700b	-2.5068386
163	0x3ff71936	1.9304569
164	0x40578ec5	3.368089
165	0x3f9c7225	1.2222334
166	0x403c57ff	2.9428709
167	0x3e42afc5	0.19012363
168	0x40284adb	2.6295688
169	0xbfce6bc4	-1.6126637
170	0xc02aca03	-2.6685798
171	0x3ff677d7	1.9255322
172	0x402c19cd	2.6890748
173	0xbf792c20	-0.97332954
174	0xc0476127	-3.1153047
175	0x3f12fba0	0.574152
176	0xc01b24b7	-2.424116
177	0x4004a4d3	2.07256
178	0x3f550799	0.8321472
179	0xbffea524	-1.9894147
180	0x40199a73	2.4000518
181	0xbfb4a4c7	-1.4112786
182	0x40496a85	3.1471264
183	0xbf99beaa	-1.2011311
184	0x403c2378	2.9396648
185	0x3f4790fe	0.77955616
186	0xc02c4e7b	-2.69229
187	0xbf9e8230	-1.238348
188	0xc03122ae	-2.7677417
189	0x3f8019eb	1.000791
190	0x401805e3	2.3753593
191	0xc003e6ee	-2.0609698
192	0x4018c50f	2.3870275
193	0xc003cf0b	-2.059512
194	0xc02169ad	-2.522075
195	0x3fb89650	1.4420872
196	0x400530c7	2.0811021
197	0x3fd21ed2	1.6415656
198	0x3f9e26c9	1.2355586
199	0x3fefa0f4	1.8720994
200	0xbec56066	-0.3855011
201	0xc00a30d5	-2.1592305
202	0xc01dd004	-2.4658213
203	0x3fce2d5d	1.6107594
204	0x4051a5a2	3.2757344
205	0xbfc58634	-1.543158
206	0xc04a2f0e	-3.159122
207	0xbfc099c3	-1.5046924
208	0xc017dedf	-2.372978
209	0x40035264	2.0519037
210	0xc04418a8	-3.064005
211	0xbfacbdab	-1.3495382
212	0x404bdc1b	3.1853092
213	0x3fbdd460	1.4830437
214	0x401a6633	2.4124877
215	0xbfffba34	-1.99787
216	0x3fd47f27	1.6601304
217	0xbffb5728	-1.9635973
218	0x40334215	2.8009083
219	0xbfaa5bf0	-1.3309307
220	0xc042e143	-3.044999
221	0x3f5e39c2	0.8680688
222	0x40248a3e	2.5709376
223	0xbfb1a7ad	-1.3879296
224	0xc018280b	-2.377444
225	0x3ffa13d2	1.9537299
226	0xc04d15ea	-3.2044625
227	0x3fb15490	1.3853931
228	0x40270f13	2.610295
229	0xc0046631	-2.0687373
230	0xc032f9f2	-2.7965055
231	0x3fb27f23	1.3945049
232	0x40444748	3.0668507
233	0x3fc084f8	1.5040579
234	0xc0203c45	-2.5036786
235	0x40033349	2.0500052
236	0x4028c43d	2.6369774
237	0xbf9b9388	-1.2154398
238	0x40227c6c	2.538844
239	0x3f919909	1.1374828
240	0xc0194d09	-2.3953269
241	0x4004023c	2.0626364
242	0xc02c845e	-2.695579
243	0x3ff5ece4	1.9212918
244	0xc0160974	-2.344327
245	0x40019a03	2.0250251
246	0xbf5d464e	-0.864354
247	0xbfd072e4	-1.6285062
248	0xc03db335	-2.964063
249	0xbf9ec9f5	-1.2405382
250	0xc050040b	-3.2502468
251	0x3fc24f86	1.5180519
252	0x3ca85a87	0.02055098
253	0x3fd18fc6	1.6372001
254	0xc038d407	-2.8879411
255	0x3fada176	1.3564899

differentiable_model.linear1.bias f4 [200]
0	0x3fe54764	1.7912412
1	0xbd909374	-0.070593745
2	0xc0134ce7	-2.3015687
3	0x4009e54e	2.1546206
4	0x3fb92922	1.4465678
5	0xbf973cb3	-1.1815399
6	0xbf6f35c3	-0.9344141
7	0x3f33f0e4	0.70289445
8	0xc0447c8a	-3.0701013
9	0xc0104f2f	-2.254833
10	0xc00a85e7	-2.1644228
11	0xbf26ec20	-0.6520405
12	0x406398fa	3.556212
13	0xc01298e7	-2.2905824
14	0xc0139ca3	-2.3064353
15	0xc019db05	-2.403993
16	0xc018b2d3	-2.3859146
17	0xbf1726aa	-0.5904337
18	0x40002e33	2.0028198
19	0x403430cd	2.8154786
20	0xbfee4816	-1.8615749
21	0xbee0554d	-0.4381508
22	0x3ff26c57	1.8939313
23	0xc01719c2	-2.3609471
24	0xbfcccb1e	-1.5999486
25	0x3fa6686b	1.3000616
26	0x400d9960	2.2124863
27	0xc05b049e	-3.4221568
28	0xbe932520	-0.28739262
29	0xbfc254b7	-1.5182103
30	0x40384aca	2.8795648
31	0xc012e56e	-2.2952533
32	0x404eb3b5	3.2297184
33	0x3e8cc213	0.27491817
34	0x401d143e	2.4543605
35	0xbf87988f	-1.0593432
36	0xbf217f52	-0.630849
37	0xc0593b39	-3.3942397
38	0xc0293711	-2.643986
39	0x4013ca94	2.3092394
40	0xc025cb76	-2.5905433
41	0xc0298b7e	-2.649139
42	0xc02be9c8	-2.6861439
43	0x40566ebe	3.3505092
44	0xc004fbcc	-2.0778685
45	0xbf6b3367	-0.9187531
46	0xbeb457ba	-0.3522318
47	0x3fe9b719	1.8259002
48	0xc0217fea	-2.5234323
49	0xc063b5a3	-3.5579612
50	0x40224957	2.5357263
51	0x40081c71	2.126736
52	0xc0155161	-2.333092
53	0x3f2c4651	0.67294794
54	0xbfdd4378	-1.7286215
55	0x3e93fd38	0.28904128
56	0xbf2116bf	-0.6292533
57	0xbfa5722f	-1.2925471
58	0x3fb88eb9	1.4418555
59	0xc03dcb1f	-2.9655225
60	0x3f7d642d	0.9898098
61	0x3fe562c7	1.792077
62	0x3fcd4e5e	1.6039541
63	0xbf52f890	-0.82410526
64	0xc01c603f	-2.4433744
65	0xc00a3ddf	-2.1600263
66	0x3f979aba	1.1844094
67	0xbfdd368f	-1.7282275
68	0x3fd734e5	1.6813017
69	0xc03bf9ce	-2.9371219
70	0x3faab0b4	1.3335176
71	0x404b13ef	3.1730917
72	0x3ff577df	1.9177207
73	0xc00a9b4e	-2.165729
74	0x402086e9	2.5082343
75	0xc0163ac4	-2.3473368
76	0x3f8df4a0	1.1090279
77	0x3f276d4c	0.6540115
78	0x3fc48164	1.5351987
79	0xbfc0a155	-1.5049235
80	0x3fecb08c	1.8491378
81	0x3fbf8c4f	1.4964694
82	0xc065f662	-3.593163
83	0xc022779f	-2.538551
84	0x3fcb3be4	1.5877652
85	0x40080c91	2.125767
86	0x4019ef6c	2.4052382
87	0x402f8b50	2.742878
88	0x3ff862af	1.9405116
89	0xc01ff615	-2.4993947
90	0xbf8e0247	-1.1094445
91	0xc012b523	-2.2923057
92	0xc01f00b4	-2.484418
93	0x40137dd4	2.304555
94	0xc0020557	-2.031576
95	0xbffc8de2	-1.9730799
96	0xc01d43bc	-2.4572592
97	0xbe8afa63	-0.27144155
98	0x3ff05d82	1.8778536
99	0x406f6db7	3.7410715
100	0xc0676601	-3.6156008
101	0x3fe3aa71	1.778639
102	0xc00ed4dc	-2.231742
103	0x3f138ff1	0.5764151
104	0x401c68d9	2.4438994
105	0x402fd4a5	2.7473538
106	0xc02162eb	-2.5216625
107	0xbfd1e799	-1.6398803
108	0xc0375db1	-2.8650935
109	0xbddaa4df	-0.10675978
110	0x401f07db	2.4848545
111	0x3f26aa56	0.6510366
112	0x3fd40491	1.6563894
113	0x3ff08c87	1.8792886
114	0xbfeabaa6	-1.833821
115	0xc0054baa	-2.0827432
116	0xc052d9d2	-3.2945447
117	0x4002b942	2.0425572
118	0x3e16f8fc	0.14743418
119	0xc0219f56	-2.52535
120	0x400579a5	2.0855496
121	0x3f11ea01	0.56997687
122	0x400af83e	2.1714015
123	0xc033653e	-2.8030543
124	0x4019a142	2.4004674
125	0x3f80cc99	1.0062438
126	0x404fdcb9	3.2478468
127	0x3eec1788	0.46111703
128	0x402044b3	2.504193
129	0xc04c4c71	-3.1921656
130	0xbfc6815b	-1.5508226
131	0x402086cc	2.5082273
132	0xbf995655	-1.1979471
133	0xc00f72b5	-2.2413762
134	0x3faf40cc	1.369165
135	0x3ff5481d	1.9162632
136	0xc0372191	-2.8614237
137	0xbed17c56	-0.40915173
138	0xbf79102f	-0.9729032
139	0x3f41a398	0.7564025
140	0x3f5cb0df	0.86207384
141	0x403f7543	2.991532
142	0xbf5be84c	-0.8590133
143	0xbfb3f082	-1.4057772
144	0xbfe171bc	-1.7612834
145	0x4063cf24	3.5595179
146	0xc011002c	-2.2656355
147	0xbfe8e560	-1.8195
148	0x3ff38b43	1.9026874
149	0xbf9b1c02	-1.2117922
150	0xc0391ea0	-2.8924942
151	0xc038ae69	-2.8856452
152	0xbe9ce8e1	-0.30646423
153	0xbe48f025	-0.19622858
154	0x40117633	2.2728393
155	0xbf86fa85	-1.0545202
156	0xbe0ae117	-0.13562427
157	0x3f4c4c3a	0.7980381
158	0xc01d5951	-2.4585764
159	0x3ffe5f21	1.9872781
160	0xbfea450a	-1.8302319
161	0xbf9a3579	-1.2047569
162	0xbf7499b8	-0.95547056
163	0x400cf323	2.20234
164	0xc05822d5	-3.377126
165	0xbd75afee	-0.059982233
166	0xbf47268e	-0.77793205
167	0x3fb45a9a	1.4090149
168	0xc010c5b6	-2.2620673
169	0x400de8ba	2.2173295
170	0x406578af	3.585491
171	0x400adb27	2.169626
172	0x3f9255df	1.1432456
173	0xc00fad92	-2.244969
174	0xc001e2c4	-2.0294657
175	0x40493a96	3.1442008
176	0xbf8274d2	-1.0191901
177	0x40286044	2.6308756
178	0xbe3c06e6	-0.18362007
179	0x404f4479	3.2385542
180	0xc00810ea	-2.1260324
181	0xbff7d773	-1.9362625
182	0xc072e2e8	-3.7950993
183	0xbff14ee8	-1.8852205
184	0xbff1a960	-1.8879814
185	0xc04d85a9	-3.211283
186	0xbfad78c5	-1.3552481
187	0x3f977bca	1.1834652
188	0x403a1e08	2.908083
189	0x401b73fa	2.4289536
190	0x3fd3bc01	1.6541749
191	0xc04e43f9	-3.2228987
192	0x40231d5e	2.5486674
193	0x4021fba2	2.5309834
194	0x4048d86a	3.1382089
195	0x3e545a81	0.2073765
196	0xbff6d3f2	-1.928343
197	0xbfcdd5ef	-1.6080912
198	0x405fab0d	3.494815
199	0x40262b95	2.59641

differentiable_model.linear2.weight f4 [200, 200]
0	0xc02a5b48	-2.6618214
1	0x401c0916	2.4380546
2	0x3e2d92f5	0.16950591
3	0xc01375b8	-2.30406
4	0xc01d4c7f	-2.457794
5	0xbfda78e7	-1.7068146
6	0xbfb7b8af	-1.4353236
7	0x3fc6b3f1	1.5523664
8	0xbf62236a	-0.8833529
9	0xc027c1a6	-2.6211944
10	0xbfcd28d4	-1.6028085
11	0x3cc14aa1	0.023595156
12	0x3f8f4272	1.1192153
13	0xc025764d	-2.5853455
14	0xbe5bebb8	-0.21476638
15	0x3f337bea	0.7011095
16	0x402c29fb	2.6900623
17	0x3f64a19d	0.893091
18	0xc0238b1d	-2.5553658
19	0x402f63e8	2.7404728
20	0xbdaa5cf4	-0.08318511
21	0xc0148752	-2.3207593
22	0xc02472ad	-2.5694993
23	0xc025fd7a	-2.593596
24	0xbf8b5ecd	-1.0888306
25	0x3fab1293	1.3365043
26	0x3fb2289c	1.3918643
27	0xbf73f692	-0.9529811
28	0xc01f2340	-2.4865265
29	0xbf2cbed5	-0.67478687
30	0x40310a93	2.7662704
31	0xc0225ff3	-2.5371063
32	0x3f7ce73b	0.9879033
33	0x40161456	2.3449912
34	0x3fe7c45d	1.81068
35	0x40132c81	2.2995913
36	0x401b74bf	2.4290006
37	0xbf900131	-1.1250364
38	0xc021b14a	-2.5264459
39	0xbf3f6693	-0.7476589
40	0x4017fe0f	2.3748815
41	0x3fb22787	1.3918313
42	0xc0276fe5	-2.6162045
43	0x3f89fb39	1.0779792
44	0x4022fa3f	2.5465238
45	0xc030b4de	-2.7610393
46	0x3e85830e	0.2607655
47	0xc0307b19	-2.7575133
48	0xbfa9c1ac	-1.3262229
49	0xbf97792c	-1.1833854
50	0xbdc8b1b2	-0.09799518
51	0xc0318dcf	-2.7742803
52	0xbfdd9a92	-1.7312796
53	0x401c44f8	2.4417095
54	0x401b9a8e	2.4313083
55	0x3ea1659b	0.3152283
56	0xc026af2b	-2.6044414
57	0xbf82be9b	-1.0214418
58	0x3f5d530e	0.86454856
59	0xbf57295c	-0.84047484
60	0x3f7e6058	0.9936576
61	0x4023eb9a	2.561255
62	0xbf95d5d4	-1.170588
63	0xc02f6faa	-2.7411904
64	0xbfc9926f	-1.5747813
65	0x3f6ac098	0.91700125
66	0x4029f851	2.655781
67	0x401df403	2.4680183
68	0xc01ccc66	-2.4499755
69	0xbf9590d1	-1.168482
70	0xc01d618a	-2.4590783
71	0x3f895e78	1.0731955
72	0xc01d42a7	-2.4571931
73	0x3f8cff6e	1.1015451
74	0xc02673e2	-2.600823
75	0xbf68dd9b	-0.90963143
76	0x3f7ff5d5	0.99984485
77	0x4016aaf1	2.3541834
78	0x3f1fe33c	0.6245611
79	0x40326205	2.7872326
80	0xc0270fa8	-2.6103306
81	0x3f44ae2c	0.76828265
82	0xc01dc67d	-2.4652398
83	0xc002ca71	-2.043606
84	0xbf7390b8	-0.951427
85	0xc026d4c5	-2.6067364
86	0xbf82813e	-1.0195692
87	0x402d6bf8	2.709715
88	0x3e1f8eb1	0.15581776
89	0x401f2cca	2.4871087
90	0xbf4fb1d3	-0.81130713
91	0xbf834c80	-1.0257721
92	0xc025f067	-2.592798
93	0x402da4e2	2.7131886
94	0x3f821842	1.0163653
95	0xbfad9943	-1.3562397
96	0xbf8d32c4	-1.1031117
97	0x3e94c01b	0.29052815
98	0x3f56a159	0.83839947
99	0x3f68973a	0.90855753
100	0xbf8661a3	-1.0498546
101	0xc01be31e	-2.4357371
102	0xbfc49866	-1.5359008
103	0x402d2865	2.7055905
104	0x3f7eceb9	0.99534184
105	0x402b3832	2.675305
106	0xc03421ce	-2.8145633
107	0xbeca9bb8	-0.3957193
108	0xbf60d473	-0.8782417
109	0x401a43a5	2.4103787
110	0x3ff5cfe9	1.9204074
111	0x4015240c	2.3303251
112	0xbecb318d	-0.39686242
113	0x3fd1140b	1.6334242
114	0xbfb3baf8	-1.4041433
115	0x3f4af7cd	0.79284364
116	0xc02c357f	-2.6907651
117	0xc01d2742	-2.455521
118	0x402311c8	2.5479603
119	0xc02ece44	-2.7313395
120	0x3f6579c5	0.8963893
121	0x3f621b1a	0.88322604
122	0xc037fb6f	-2.8747213
123	0xbf434df3	-0.76290816
124	0x40289e68	2.6346684
125	0x3fbd7419	1.4801055
126	0x3f7619ea	0.9613329
127	0xc023f17c	-2.561614
128	0x3fc4fc7d	1.5389553
129	0xbf6978d4	-0.91199994
130	0x4027a75b	2.6195896
131	0xc00fc6d0	-2.2465096
132	0x3fc6c404	1.5528569
133	0x4026fa4a	2.6090264
134	0x3f6bf8ca	0.92176497
135	0xbfad5f09	-1.3544627
136	0xbf7a960f	-0.9788522
137	0x3f7ebbaa	0.995051
138	0x401a3d37	2.4099863
139	0xc01f8eca	-2.4930902
140	0x3f94ab8a	1.161485
141	0x4033da8e	2.8102145
142	0x401adc32	2.4196897
143	0x401e28f5	2.4712498
144	0x3d135d26	0.035977505
145	0x3f7f5d7d	0.99752027
146	0xbf6b43d4	-0.9190037
147	0xbf23adc2	-0.6393701
148	0x3fa867fb	1.3156732
149	0x402d04ca	2.7034173
150	0xbf8371d6	-1.0269115
151	0xbfb2bf08	-1.3964548
152	0xbf246b10	-0.64225864
153	0xbfbc8e3d	-1.4730908
154	0xc01cc61e	-2.449592
155	0x3fa294e3	1.2701687
156	0xc01fdbd6	-2.4977927
157	0x402bb8a3	2.6831443
158	0xbfc6fedb	-1.5546526
159	0x3ec8ac22	0.39193827
160	0xbf1c8d31	-0.6115294
161	0xbf3070df	-0.6892223
162	0xc02b6f74	-2.6786776
163	0x3f27a6c9	0.6548887
164	0xbf7e5c37	-0.9935946
165	0xc01c6d4b	-2.4441707
166	0x401ab3c4	2.417222
167	0xbf95de8b	-1.170854
168	0xbfcdd75c	-1.6081347
169	0x3d7c4165	0.061585803
170	0x3f79c52a	0.97566473
171	0x3f48bd2e	0.78413665
172	0x3f8679bf	1.0505904
173	0x402483f2	2.5705533
174	0x401a7f6e	2.4140277
175	0x3f901f51	1.1259557
176	0x4024aa08	2.572878
177	0xbf9e0782	-1.2346041
178	0xbf924e0f	-1.1430072
179	0xbeb4b0fc	-0.35291278
180	0xbf6a9b54	-0.9164326
181	0x40204b8b	2.5046108
182	0xbf7da687	-0.99082226
183	0x402b47ea	2.6762643
184	0xbdf40fd6	-0.11917083
185	0x40087973	2.1324127
186	0x3f8671df	1.0503501
187	0xc019f80a	-2.405764
188	0x3f711152	0.94167054
189	0xbf8d7048	-1.104989
190	0xc02d8090	-2.7109718
191	0xbf869c0a	-1.0516369
192	0xbf9b7101	-1.2143861
193	0xc01cbf3a	-2.4491715
194	0x3f90bdf0	1.1307964
195	0x401dfd9b	2.4686038
196	0x401dbb09	2.4645407
197	0xbf1f5409	-0.622376
198	0xc02a1466	-2.657495
199	0x403b1781	2.9233096
200	0xbfcd80c2	-1.6054919
201	0xbfa2c566	-1.2716491
202	0xbe690d67	-0.22759019
203	0x3fb004ed	1.3751503
204	0x3fc0c6c1	1.5060655
205	0xc00a19a5	-2.1578152
206	0xc0077bcd	-2.1169312
207	0x40064dda	2.0985017
208	0xc008546f	-2.1301534
209	0xc00d4f6e	-2.207973
210	0xc007765f	-2.1165998
211	0xbfc26f67	-1.5190247
212	0x4007556a	2.1145883
213	0xc00b2c12	-2.1745648
214	0x3fbdaf99	1.4819213
215	0xc005768a	-2.08536
216	0x3fceaa10	1.6145649
217	0x3fb97c85	1.4491125
218	0x3fe6e9a3	1.804005
219	0x40086ff7	2.1318338
220	0xbff138fd	-1.8845516
221	0x3fbf27c1	1.4934007
222	0x3fd6b2f3	1.6773361
223	0xc0037f41	-2.054642
224	0xbfffe887	-1.9992837
225	0x40070989	2.109957
226	0x4002c8ba	2.0435014
227	0xc004cc54	-2.0749712
228	0x3fb68bb8	1.4261389
229	0xbffc63a8	-1.9717913
230	0x4004cd36	2.075025
231	0xc008fc9c	-2.140418
232	0xbfb1556a	-1.3854191
233	0xbfb945f5	-1.4474474
234	0x400f77c2	2.2416844
235	0x4008ebd8	2.1393948
236	0xbfc8178a	-1.5632184
237	0x3fa559c2	1.2918017
238	0xc005d3bc	-2.0910482
239	0xc002e2a7	-2.0450838
240	0xc01023d8	-2.2521877
241	0xbfc770a6	-1.5581253
242	0xc00538d4	-2.0815935
243	0x40061739	2.0951674
244	0xbfbcd1ca	-1.4751523
245	0xc008d392	-2.1379132
246	0x3fc25c67	1.5184449
247	0x3fb8f60b	1.4450086
248	0xc006c550	-2.105793
249	0xc00535de	-2.0814128
250	0x3fd9c5d9	1.7013503
251	0x3fd64324	1.673924
252	0xc00240c4	-2.035203
253	0xbfc02450	-1.5011082
254	0xbfad8fa1	-1.3559457
255	0xbfadeafe	-1.3587339

differentiable_model.linear2.bias f4 [200]
0	0x3f171d31	0.5902892
1	0x3fbd9cc7	1.481347
2	0x40269301	2.6027224
3	0x3e5a1b3f	0.21299456
4	0x3f2695d8	0.65072393
5	0x4006b877	2.1050088
6	0x3f13e229	0.5776697
7	0xbe551e5d	-0.20812364
8	0x401c7dde	2.4451823
9	0xbfcfefda	-1.6245072
10	0xc00ddfb2	-2.2167783
11	0xbfdd3fc4	-1.7285085
12	0x3fe7c473	1.8106827
13	0xbfafd7b2	-1.37377
14	0x4007ad07	2.1199358
15	0xc0301ae1	-2.7516406
16	0xbe86beff	-0.26317593
17	0x40572240	3.3614655
18	0xbf8b02f5	-1.0860277
19	0x3f7f9ffa	0.9985348
20	0xbfdfa942	-1.7473528
21	0xbfea36f8	-1.8298025
22	0xbfb34441	-1.4005204
23	0x3e80b200	0.25135803
24	0xbfeeedc6	-1.8666313
25	0x3f4dda17	0.80410904
26	0x40460feb	3.0947216
27	0x3eda4b63	0.4263564
28	0xc0431a9f	-3.0484998
29	0x3ff02565	1.8761412
30	0x400e4614	2.2230272
31	0x401f2654	2.4867144
32	0x3fbf96d8	1.4967909
33	0xbf375e8e	-0.71628654
34	0xbf4b29d1	-0.7936068
35	0x3eda4b4e	0.42635578
36	0x3e124588	0.14284337
37	0x3f03750c	0.51350474
38	0xbff1c339	-1.8887702
39	0xc006f8f0	-2.108944
40	0x3f518baf	0.81853765
41	0xc03d264e	-2.955463
42	0x3e8ae351	0.27126554
43	0x3ff857b3	1.9401764
44	0x3fbef664	1.4918942
45	0xbdf70fcf	-0.12063562
46	0xbf7fa078	-0.9985423
47	0xbf019efa	-0.50633204
48	0x3e14bbad	0.14524718
49	0x3fef81d3	1.8711494
50	0x40354bbf	2.8327482
51	0x4017817c	2.367278
52	0xbfcd5439	-1.6041328
53	0x3e312b99	0.17301787
54	0x3d51775c	0.05113922
55	0xc036b7d1	-2.8549693
56	0xc01b17ad	-2.42332
57	0x400878ee	2.132381
58	0xc01c516a	-2.4424691
59	0xbf9ad7b0	-1.2097073
60	0x3fe7edcd	1.8119446
61	0x400b69c9	2.1783316
62	0x4041badb	3.0270298
63	0xc04b36d8	-3.1752224
64	0xc00cea40	-2.2017975
65	0xc00aa6e0	-2.1664352
66	0x3f47c766	0.7803863
67	0xbfdc65e9	-1.72186
68	0x4027a91f	2.6196973
69	0x3fd481ad	1.6602074
70	0xbe1c99fd	-0.15293117
71	0xc005fcd1	-2.0935557
72	0xbe05e282	-0.13074687
73	0x4011ba53	2.2769973
74	0x3fcecea5	1.6156813
75	0xc023ae8f	-2.5575292
76	0xbf93a425	-1.1534468
77	0xbfed0e82	-1.8520052
78	0xbf93b93c	-1.1540904
79	0xbff70a2b	-1.9299978
80	0xbfc6b1fd	-1.5523068
81	0xbfc8e801	-1.5695802
82	0xc04c515c	-3.1924658
83	0x3ff9fd25	1.9530379
84	0x400a2bac	2.1589155
85	0x3fd7b79b	1.6852907
86	0xc0073d08	-2.1131
87	0xc0188123	-2.3828819
88	0x4000c43e	2.0119777
89	0x4019752a	2.3977761
90	0x3ef16e9b	0.47154698
91	0x3ff40e73	1.906691
92	0xbf882819	-1.0637237
93	0x401a579e	2.4115977
94	0xbf1a3290	-0.602334
95	0xbfed9064	-1.855969
96	0xc00f38e8	-2.2378483
97	0x3fba0c1b	1.4534944
98	0x40406480	3.006134
99	0xbfe3372a	-1.775121
100	0xc03dabfa	-2.9636216
101	0xbf6494d9	-0.89289623
102	0x3fdc7bba	1.7225258
103	0x3eca7665	0.39543453
104	0xbff9dbbe	-1.9520185
105	0x401fc99e	2.4966807
106	0x3f2f6392	0.6851131
107	0x3ddb5cc2	0.107110515
108	0xc017c316	-2.371282
109	0xc00b9222	-2.1807942
110	0x4018c0f7	2.3867776
111	0xbfc04108	-1.5019846
112	0x3fdcbf49	1.7245876
113	0xbf2c49a9	-0.67299896
114	0x3fe67590	1.8004627
115	0xbf352a77	-0.7076792
116	0xbe90a675	-0.28251997
117	0x401896dc	2.3842077
118	0xbe89af23	-0.2689143
119	0x3fcba8bd	1.591087
120	0xbee7dc61	-0.45285323
121	0xc00af302	-2.171082
122	0x3ff20975	1.8909136
123	0xbf048fc0	-0.51781845
124	0xc005f936	-2.0933356
125	0xbfb00c28	-1.375371
126	0xbec8e57b	-0.3923758
127	0x3f34f055	0.7067922
128	0xc00b5b56	-2.1774497
129	0x3f58f77e	0.84752643
130	0x3fd05239	1.6275092
131	0xbfd1d55a	-1.6393235
132	0x4021a0d9	2.5254424
133	0xbf2e8ee9	-0.68186814
134	0xc01224bd	-2.2834923
135	0xbf9de0f9	-1.2334281
136	0x3f129ed6	0.57273614
137	0xc0509525	-3.259103
138	0x4007f6c1	2.1244357
139	0x3ebb0b2f	0.3653197
140	0xc00bc01d	-2.1836007
141	0x3f9ecb52	1.2405798
142	0xc0083b08	-2.128603
143	0xbf1df93c	-0.61708426
144	0xbf711081	-0.9416581
145	0x3ffd00c4	1.9765859
146	0x3f93517e	1.1509244
147	0x401d4cc6	2.4578109
148	0x3f34249e	0.70368373
149	0xbf91bcc2	-1.1385729
150	0xbdbcfe32	-0.092281714
151	0xbfea75c0	-1.8317184
152	0x4012c684	2.2933664
153	0xbf849486	-1.0357826
154	0xbe90e4c9	-0.2829955
155	0x3f0882a3	0.53324336
156	0xc0021ca8	-2.032999
157	0xc01c6ccc	-2.4441404
158	0xbf775dd0	-0.9662752
159	0x3fe60ced	1.7972695
160	0xbf3a0c19	-0.7267471
161	0x4039b1ca	2.9014764
162	0xc0004d02	-2.0047002
163	0xbe2e4005	-0.17016609
164	0x404ac9eb	3.168574
165	0x3fc98b4e	1.5745637
166	0xbfef83eb	-1.8712133
167	0x4050a95f	3.2603376
168	0x40202d0f	2.5027502
169	0xc039118e	-2.8916965
170	0x3eea4f1b	0.45763478
171	0x3f5feab9	0.87467533
172	0xc01dd02a	-2.4658303
173	0x3fe154bc	1.7603984
174	0x40168e8f	2.352451
175	0x3f323504	0.69612145
176	0x3fd39808	1.6530771
177	0x3ff5f330	1.921484
178	0x400fa15f	2.2442243
179	0xbfd3b8c8	-1.6540766
180	0x3fc2cfdc	1.5219684
181	0xbfcebf4a	-1.6152127
182	0x3f1025ad	0.5630749
183	0x3f69200c	0.91064525
184	0x3f3a7902	0.72840893
185	0xbfd4d976	-1.6628864
186	0xc033645f	-2.8030012
187	0xbf6f58e3	-0.93495005
188	0xc02d9f06	-2.712831
189	0x3f6a28e8	0.9146867
190	0xbf9b7e9e	-1.2148015
191	0x3f879e88	1.0595255
192	0xbfa740af	-1.3066615
193	0x3fa9f857	1.3278912
194	0x40238602	2.5550542
195	0xbf4dd990	-0.804101
196	0x3fbccba4	1.4749646
197	0xc0316fbd	-2.772445
198	0xbf8e31db	-1.1108965
199	0xc00db8d5	-2.2144063

differentiable_model.linear3.weight f4 [2, 200]
0	0x3f7527c9	0.9576383
1	0x3d9d046f	0.07666861
2	0x3ec842f4	0.3911358
3	0xbf22fc1a	-0.63665926
4	0xbfbca5a4	-1.473805
5	0xbd8a741b	-0.067604266
6	0xbf61c24d	-0.88187104
7	0xbf941640	-1.156929
8	0xbdb8cb96	-0.09023206
9	0xbeb82a39	-0.35969713
10	0x3e9d4fae	0.30724853
11	0xbe90b676	-0.28264207
12	0xbfb1bb28	-1.388524
13	0x3eb5967a	0.35466367
14	0xbea37d21	-0.31931403
15	0xbcedaa2e	-0.029011812
16	0x3e238389	0.15968145
17	0xbf7db63d	-0.991062
18	0xbdf8272c	-0.121168464
19	0xbfa64eb0	-1.2992764
20	0x3e42388d	0.18966885
21	0xbe88d589	-0.26725414
22	0xbe184c29	-0.14872803
23	0xbf66adc7	-0.90108913
24	0xbe4e6244	-0.20154673
25	0xbfa6292a	-1.2981312
26	0xbe008e0a	-0.12554184
27	0x3eb60ed9	0.35558203
28	0x3fa6ed38	1.3041143
29	0x3e33fa7a	0.17576018
30	0x3fcda1fd	1.606506
31	0xbc7646aa	-0.015031496
32	0x3dad5fa7	0.0846551
33	0xbf2fd615	-0.6868604
34	0x3f7184d8	0.9434333
35	0x3e6fa945	0.23404415
36	0xbf982f18	-1.1889372
37	0x3f2b5f9e	0.66942775
38	0x3e986aaa	0.29768878
39	0x3f11ea57	0.569982
40	0xbfbfbf10	-1.4980183
41	0xbf5ec85c	-0.87024474
42	0x3daa445d	0.083138205
43	0x3f861f86	1.047837
44	0x3eb0d861	0.34540084
45	0xbea2446e	-0.31692833
46	0xbfbde650	-1.4835911
47	0x3f635935	0.88807994
48	0x3ebdbbc2	0.3705731
49	0x3e195867	0.14975129
50	0xbeac125b	-0.33607754
51	0x3e64dd9c	0.22350162
52	0xbd985630	-0.07438314
53	0x3ecb98ab	0.39764914
54	0xbf0640aa	-0.5244242
55	0xbdef7916	-0.11693017
56	0xbe5e14aa	-0.2168757
57	0x3cc8a8f8	0.024494633
58	0xbb92f545	-0.004484805
59	0xbea40090	-0.3203168
60	0x3fc5b228	1.5444994
61	0xbd87a529	-0.06623299
62	0xbe31998b	-0.17343728
63	0x3f2517b1	0.64489275
64	0x3e819975	0.2531239
65	0x3e96b3b6	0.29433984
66	0xbfa2de9a	-1.2724183
67	0xbd93356f	-0.07187926
68	0xbc9d143c	-0.019174688
69	0xbdddc0f4	-0.108278185
70	0xbe63f38e	-0.22260877
71	0x3ebd62c9	0.3698943
72	0x3f8286b5	1.0197359
73	0x3dcbca95	0.09950749
74	0xbe25187f	-0.16122626
75	0x3f1830db	0.5944955
76	0xbd7d6316	-0.061862074
77	0xbe49deb3	-0.1971386
78	0xbde160ed	-0.11004815
79	0x3e5ab4d0	0.21358037
80	0xbf360602	-0.7110292
81	0xbfdd38e8	-1.7282991
82	0xbf433e8b	-0.7626731
83	0xbe115b8f	-0.14195083
84	0x3faa21e2	1.329159
85	0x3e06e443	0.13173012
86	0x3e297d79	0.1655177
87	0xbfc1525f	-1.5103263
88	0x3e001f8a	0.12512031
89	0x3f3e44c7	0.74323696
90	0xbead231c	-0.3381585
91	0x3e94e57c	0.29081333
92	0xbdea0115	-0.11425988
93	0x3de84775	0.11341754
94	0xbe9b587d	-0.3034095
95	0xbfb33548	-1.4000635
96	0x3e2f7f6b	0.1713845
97	0x3fd4ee5a	1.6635239
98	0xbf5bdd2c	-0.85884356
99	0xbdb1d3a0	-0.086829424
100	0x3fbe7b73	1.4881424
101	0x3f9a2637	1.2042912
102	0xbd864a4d	-0.065571405
103	0xbeb137d7	-0.34612915
104	0xbfbb7b7e	-1.4647062
105	0xbc6721d2	-0.0141071845
106	0x3f57d2e2	0.84306157
107	0x3e141d6e	0.14464352
108	0xbe16f15e	-0.14740512
109	0x3e027114	0.12738448
110	0x3cb2bba4	0.02181799
111	0xbe7df47b	-0.24800293
112	0x3e82aa41	0.25520518
113	0x3f0abda7	0.54195637
114	0x3f808d81	1.0043184
115	0xbe36e6c2	-0.17861465
116	0xbf349533	-0.7054016
117	0xbe3465bd	-0.17616935
118	0x3f8d9a81	1.1062776
119	0x3dd857e8	0.10563642
120	0x3fb12ad3	1.3841194
121	0x3e3dc653	0.18532686
122	0x3e939ad4	0.28829062
123	0x3f1eb435	0.61993724
124	0xbe683049	-0.2267467
125	0xbcf7c349	-0.030244486
126	0x3f25373f	0.64537424
127	0xbfa6c2a8	-1.3028154
128	0x3e234577	0.15944467
129	0xbef07584	-0.46964657
130	0x3e81e959	0.25373343
131	0xbbba52bd	-0.0056861327
132	0x3f660532	0.8985168
133	0x3f2937ac	0.66100574
134	0x3e5c4a60	0.21512747
135	0x3f1ebba8	0.6200509
136	0x3ef668ff	0.4812698
137	0x3f8f519b	1.1196779
138	0xbeb75c8c	-0.35812795
139	0xbfb6654f	-1.4249667
140	0x3e8e1225	0.27748218
141	0xbe1d4cac	-0.15361279
142	0x3e115f80	0.14196587
143	0x3fcafd28	1.5858507
144	0xbeed1049	-0.46301487
145	0x3e3c43e6	0.18385276
146	0x3f1aaa34	0.6041596
147	0xbd9e78f7	-0.07737916
148	0xbf0aa73c	-0.5416143
149	0x3ebf47d3	0.37359485
150	0x3ebe9f9c	0.37231147
151	0xbe2a2d57	-0.16618858
152	0xbe9ccf93	-0.30627117
153	0x3fafdcaf	1.3739222
154	0x3e21caea	0.15800062
155	0xbee9ab95	-0.4563872
156	0xbfd01e63	-1.6259273
157	0x3ac9cb6b	0.0015395706
158	0x3f60567a	0.8763195
159	0x3e950863	0.2910796
160	0x3f4777bf	0.77917093
161	0x3dcf32a4	0.10117081
162	0xbec3badd	-0.38228503
163	0x3e2be383	0.16786008
164	0xbf47c93a	-0.7804142
165	0xbf224739	-0.6338993
166	0xbdc2d97c	-0.09514138
167	0xbf10586e	-0.56384933
168	0x3decfffd	0.115722634
169	0xbe3b81b3	-0.18311195
170	0x3d388a0b	0.045053523
171	0x3f21a767	0.6314606
172	0xbe69aa30	-0.22818828
173	0x3fc60ef3	1.5473312
174	0x3e6a203a	0.22863856
175	0xbf6a78ce	-0.91590583
176	0xbe211ef1	-0.1573446
177	0x3e3e5493	0.1858695
178	0xbe889c78	-0.26681876
179	0xbe69cde5	-0.22832449
180	0x3ddde3b1	0.10834444
181	0xbe248639	-0.16066827
182	0xbfaf5dc7	-1.3700494
183	0xbe0ecded	-0.13945742
184	0xbf7a556f	-0.9778661
185	0xbe0db054	-0.13836795
186	0xbd760d27	-0.060071137
187	0x3fc76ea0	1.5580635
188	0xbf1d5f08	-0.6147313
189	0xbfba37a6	-1.4548233
190	0x3fc359d9	1.5261794
191	0x3fd907ae	1.6955469
192	0xbd8424f1	-0.064523585
193	0x3d92651f	0.071481936
194	0xbfb81c19	-1.4383575
195	0x3f911972	1.133589
196	0x3e27befc	0.16381449
197	0xbe4c9de3	-0.19982104
198	0x3f9c5f15	1.2216517
199	0x3e6d1045	0.23150738
200	0x3fe13264	1.7593503
201	0x3fa3aeb6	1.2787693
202	0xbfb2c857	-1.3967389
203	0xbfbabf6f	-1.4589671
204	0xbff13676	-1.8844745
205	0xbfb33f67	-1.4003724
206	0xbfcf8ff4	-1.6215806
207	0xbfe97760	-1.8239555
208	0xbfa57900	-1.2927551
209	0xbfbe4179	-1.4863731
210	0x3fd566e1	1.6672021
211	0xbfc1454b	-1.5099272
212	0xbfe5137b	-1.789657
213	0x3fc3ece5	1.530667
214	0xbfc4d705	-1.5378119
215	0x3fca371d	1.5798069
216	0x3fd62b38	1.6731939
217	0xbfee7bab	-1.863149
218	0xbfae1732	-1.3600829
219	0xbfe838e6	-1.8142364
220	0x3fc49b14	1.5359826
221	0xbfc4c9d2	-1.5374091
222	0xbfa9ac1e	-1.3255651
223	0xbfe78fa9	-1.8090717
224	0xbfb91f13	-1.4462608
225	0xbfbe5bd1	-1.487177
226	0xbfc3d69d	-1.529987
227	0xbfeda3a7	-1.8565568
228	0x3fd8af04	1.692841
229	0x3fb5afd9	1.419429
230	0x3fe2c0da	1.7715104
231	0xbface992	-1.350878
232	0x3fbb59b7	1.4636754
233	0x3fd7b6ef	1.6852702
234	0x3feb33f4	1.837523
235	0x3fb17828	1.3864794
236	0xbfd6dd3a	-1.6786263
237	0xbfd14954	-1.6350503
238	0x3fc0cc01	1.5062257
239	0xbfce1142	-1.6099017
240	0xbfe3e7af	-1.7805079
241	0x3fbf7329	1.4957019
242	0xbfc7ea38	-1.5618353
243	0x3ff56fec	1.9174781
244	0x3fc1e4db	1.5147966
245	0xbfe24e53	-1.7680153
246	0xbfd1b83e	-1.6384351
247	0x3fdd9f8d	1.7314316
248	0x3fdba0f0	1.7158489
249	0x3fba3923	1.4548687
250	0xbfced6ae	-1.6159265
251	0xbf9c157e	-1.2194059
252	0xbfb53900	-1.415802
253	0x3fc2b8fd	1.5212704
254	0xbfe50184	-1.7891088
255	0x3f9c9c78	1.223525
