MLP/model-MLP.tar (torch, 166747 bytes, 5 tensors)

differentiable_model.linear1.weight f4 [200, 2]
000000 92 7e ab bc d4 70 a0 3e 40 86 cf 37 5f 68 36 bf
       -0.020934377 0.3133608 2.4738838e-05 -0.7125301
000010 c6 85 c6 be 79 31 dd be 30 8a 45 ba eb df 2a bf
       -0.38773936 -0.43201807 -0.0007535545 -0.6674792
000020 ca 8c 06 be b0 c5 18 bf 67 8d 98 b9 1b 49 11 3f
       -0.13139644 -0.5967665 -0.00029097052 0.56752175
000030 af ed d9 be 1a 36 90 be 17 13 ee 3d 07 41 93 3d
       -0.4256415 -0.28166276 0.11624735 0.07190137
000040 2e 7c d2 be f4 3b 94 be f4 e8 f2 be 8f 71 f0 be
       -0.41110367 -0.2895199 -0.47443354 -0.46961638
000050 1d 56 99 be 75 13 39 be 7d da 65 be c9 79 b2 be
       -0.29948512 -0.18073829 -0.22446628 -0.3485854
000060 46 dd d0 3e f8 49 8b 3e 0d 5c b8 be 02 cc 04 bd
       0.40793818 0.2720487 -0.3600773 -0.03242112
000070 f7 15 a3 3e da 94 90 bd ba 57 be 3a 18 a0 33 be
       0.31852695 -0.07059641 0.0014521994 -0.1754154
000080 f1 f9 a8 be 70 b8 82 be ef 3d c0 3e 34 3b a1 3e
       -0.3300319 -0.2553134 0.37547252 0.3149048
000090 02 02 9b be ab 98 58 be f3 23 eb b9 5a a3 a9 3e
       -0.3027497 -0.21151988 -0.00044849477 0.3313244
0000a0 a0 9c 71 3e 61 d2 c1 3e 96 22 ab 37 8c 23 25 3f
       0.23594904 0.3785582 2.0400894e-05 0.64507365
0000b0 f4 a6 7c 37 b3 e8 10 3f cb 56 8a be e8 fd 17 be
       1.5059242e-05 0.5660507 -0.27019343 -0.14842951
0000c0 f6 45 98 37 b1 ae 55 bf e2 11 2e ba ec 6e e5 3e
       1.815239e-05 -0.8346968 -0.0006640238 0.4481119
0000d0 bd d4 97 3e e2 d9 7d be e8 30 dd be e2 32 c5 be
       0.29654494 -0.24790147 -0.43201375 -0.38515383
0000e0 af 17 82 be 4d f2 03 bf 61 84 df b8 5b 13 4c bf
       -0.25408694 -0.51541597 -0.00010658126 -0.79717034
0000f0 f7 2a 99 be 61 d8 b8 be f2 2e 1f 3a f4 69 e9 be
       -0.29915592 -0.36102584 0.0006072364 -0.45588648
000100 c5 5e a8 be fc 30 33 be 6c e1 3d 37 eb d3 1a bf
       -0.32884803 -0.17499155 1.1317763e-05 -0.6047961
000110 64 14 d6 b8 68 d7 16 3f 7d 6f e9 3a 0a e3 2c be
       -0.00010208113 0.58922434 0.0017809715 -0.16883484
000120 aa b0 b2 3e e9 f6 9a 3e de 05 c1 3e 61 8a 70 3e
       0.3490041 0.30266502 0.3769979 0.23490287
000130 1c b8 74 b7 c7 95 6c bf 43 13 e0 be 2a 74 37 be
       -1.45864e-05 -0.9241604 -0.43764696 -0.17915407
000140 85 f3 a9 39 e3 2f b8 be 59 ab d6 39 4b 4a a8 be
       0.00032415628 -0.35974035 0.00040944925 -0.3286918
000150 30 bf 98 be a3 d1 8d be bc 00 ed 3e d3 25 85 3e
       -0.29833364 -0.27699003 0.46289623 0.2600542
000160 02 dc 8b 3e 2e 8f c1 be bc a6 1c bb c1 47 eb 3b
       0.2731629 -0.3780455 -0.0023903092 0.0071801846
000170 1c 5b 31 38 9a 83 18 3f c8 c7 5d 3e 26 cc a7 3e
       4.228494e-05 0.5957581 0.21658242 0.3277294
000180 43 91 8a be 3d f9 97 be 32 ef cd be b5 63 94 be
       -0.2706395 -0.2968234 -0.40221554 -0.2898232
000190 ac 5c aa b9 37 c5 9a 3e af 45 bd b9 d5 4b 84 3e
       -0.00032493973 0.30228588 -0.00036100807 0.25839105
0001a0 48 a8 02 b7 5b f6 1c bf f4 c3 a4 b8 96 6b 13 bf
       -7.787785e-06 -0.6131341 -7.8566285e-05 -0.5758604
0001b0 dc 5b 3e 3b b5 2b c7 be e0 47 96 37 eb 25 85 bf
       0.0029046452 -0.38900533 1.7914863e-05 -1.0402197
0001c0 b6 5e dc b8 96 07 08 bf 76 ee 5a be 20 81 ba be
       -0.00010508059 -0.53136575 -0.21380028 -0.3642664
0001d0 0c b1 fc 38 8a 45 16 3f 40 5b 86 be c1 ff f4 be
       0.00012049274 0.5869986 -0.26241493 -0.47851375
0001e0 35 a9 cf b7 5d b8 36 3f 66 30 4a 3b 26 96 9f be
       -2.4755116e-05 0.71375066 0.0030851602 -0.31169242
0001f0 c7 12 78 be e9 40 99 be 9e a3 4d 3e e9 e2 5c bf
       -0.24225913 -0.29932335 0.20081946 -0.8628374
000200 b0 f0 c5 b7 5c a8 1b bf 24 4f 24 ba 53 91 a1 3e
       -2.3596309e-05 -0.6080377 -0.00062678964 0.31556186
000210 1f ca 82 3e d0 c5 cd 3e c1 99 57 3b 4a 57 d4 be
       0.2554483 0.4018998 0.003289804 -0.41472846
000220 ee c6 d0 be d9 97 05 be 73 e7 62 be 65 cf 04 bf
       -0.4077677 -0.13046207 -0.22158603 -0.5187896
000230 54 37 3b 3d d5 fc fc bc d7 cb f3 3e ae f8 5f 3e
       0.045707062 -0.030882278 0.47616455 0.21872208
000240 32 1c c9 bd 59 d7 55 bf b5 27 b5 3d c3 c1 23 bd
       -0.09819831 -0.8353172 0.08845464 -0.039979707
000250 e6 91 85 3e d8 31 2f bd b7 b1 a9 39 db 63 ae be
       0.26087874 -0.042772144 0.000323666 -0.3406056
000260 b2 f5 e0 bd 1e da f6 be 02 1b a1 b8 7d 20 12 bf
       -0.10984363 -0.48213285 -7.682109e-05 -0.57080823
000270 3e 83 67 38 7f af 1e 3f e4 96 f1 b7 67 98 1d bf
       5.519692e-05 0.61986536 -2.8799703e-05 -0.6156067
000280 e8 be 81 b7 27 9d 84 3f 93 cd a5 be 84 24 60 be
       -1.5466896e-05 1.0360459 -0.32383403 -0.2188893
000290 f5 42 45 b9 96 2d 18 3f 65 ea b1 39 0c 1a 28 bf
       -0.00018812327 0.5944456 0.00033934708 -0.65664744
0002a0 b6 eb a1 be 9d b7 af be eb 1e 0c bb 54 43 d3 3e
       -0.31625146 -0.34319773 -0.0021380733 0.41262305
0002b0 24 aa c8 39 ea 1f 1a bf 5e b9 d7 38 07 3f 38 bf
       0.00038273737 -0.60204947 0.00010286526 -0.7197117
0002c0 8e 39 9a 38 c2 af 07 3f 84 d1 f0 be 0d af 59 3d
       7.3540126e-05 0.5300256 -0.47034848 0.053145457
0002d0 c0 ff 33 b8 43 3c 16 bf 93 59 cc be ac 6c b3 be
       -4.291511e-05 -0.586857 -0.3991209 -0.35043848
0002e0 e8 68 a8 37 b0 22 28 bf b8 62 d2 b6 12 79 87 3f
       2.0076011e-05 -0.6567793 -6.26998e-06 1.0583823
0002f0 77 e4 7c 3e c2 65 04 3f 93 91 0a b8 43 59 09 bf
       0.24696527 0.5171777 -3.303734e-05 -0.5365183
000300 0f d5 db b9 ee 8d 07 3f cd 58 3d 38 cf 24 14 3f
       -0.00041929676 0.5295094 4.5143814e-05 0.57868665
000310 18 75 97 37 4a 37 6e bf fb 5d 8f 3e 6b c9 1f 3f
       1.8055129e-05 -0.93053114 0.2800139 0.62416714
000320 81 f9 9d be 59 5d fa be e8 2e e6 3d 32 14 03 3f
       -0.3085442 -0.48899344 0.112394154 0.5120269
000330 36 b1 d0 3e fc eb 6c 3e 4c be b4 be de 5c 17 be
       0.407602 0.23136896 -0.35301435 -0.1478152
000340 d1 d7 33 bb 2b a1 07 3f b7 8f d0 be 43 14 2d be
       -0.002744187 0.529803 -0.40734646 -0.1690226
000350 b2 3f 87 3e 55 59 96 3e b8 ac 65 3e 81 2e bf 3e
       0.26415783 0.2936503 0.22429168 0.37340167
000360 a2 4e c7 b9 c7 d9 5e be 86 ef a3 3e a0 56 8f 3e
       -0.00038014824 -0.21762763 0.3201868 0.27995777
000370 80 26 f9 b5 07 e8 2f 3f 84 1e 95 3e 6b c2 b6 3e
       -1.8563151e-06 0.6871342 0.29124844 0.35695204
000380 18 45 49 b7 11 08 4a 3f 2d 0b bb be 17 59 81 be
       -1.1996621e-05 0.7891856 -0.36531964 -0.25263283
000390 59 a6 83 3e 4a 37 d3 3e 57 ea b8 3e 6f 01 8c 3e
       0.2571285 0.4125312 0.36116287 0.27344844
0003a0 66 c4 8a 3e 5d 02 2d 3f c7 b3 a3 be 67 de 5e be
       0.27102965 0.6758173 -0.31973097 -0.21764527
0003b0 14 7e 5e 38 ce 93 34 bf 92 fd 9a 3e 12 b9 f9 3e
       5.3046344e-05 -0.7053803 0.30271584 0.4877401
0003c0 52 f3 fd 38 98 85 f1 3e 3c fa 2c 3e 58 bc 9c 3e
       0.00012109302 0.47172236 0.16892332 0.30612445
0003d0 3c d4 1a 39 b9 c6 ea 3e ed 7b 7a 38 c0 a6 1f 3f
       0.00014765648 0.45854738 5.972006e-05 0.62363815
0003e0 a3 ee 8b 3e f9 9e 98 3e 92 aa 8d 3e 8b 29 a2 be
       0.27330503 0.29808787 0.27669197 -0.3167232
0003f0 44 b1 10 37 a8 b7 83 bf a2 03 7e be f9 c3 39 be
       8.624342e-06 -1.0290422 -0.24806073 -0.18141164

differentiable_model.linear1.bias f4 [200]
000000 5f 93 89 3e 5c a3 63 3f 09 81 c4 bf 5f e7 96 3f
       0.26870248 0.8892114 -1.5351878 1.1789359
000010 05 1a 7f bf f4 67 9c bf 43 8a ec 3e a3 4a 85 3e
       -0.9964908 -1.2219224 0.46199235 0.26033506
000020 f4 b6 9e bf 29 8a b2 be f1 31 af bf 0b be 8b bf
       -1.2399583 -0.34871033 -1.3687116 -1.0917372
000030 33 7f db 3f 8d 15 09 bf 68 11 bc be 71 ba 59 be
       1.7148193 -0.5354851 -0.3673203 -0.21262528
000040 90 c7 a4 bf e9 47 92 3f 70 e2 3d bf 67 ba 46 3f
       -1.2873402 1.1428195 -0.7417364 0.7762818
000050 3a c0 85 3f 51 08 86 bf 31 9d 10 bf bf d7 d5 be
       1.0449288 -1.0471288 -0.56489855 -0.41766164
000060 fb cd 98 3f 05 83 a0 bf a7 0d 7f be 97 f4 e2 bf
       1.193786 -1.2539984 -0.24907552 -1.7730893
000070 4c c0 c2 bf 11 ea 90 3f 85 8c ce bf ea 48 8e 3f
       -1.5214934 1.1321431 -1.6136633 1.1116002
000080 aa c3 46 be 13 32 25 3f a2 d2 8f bf 3f 15 c4 3e
       -0.19410577 0.6452953 -1.1236155 0.3829746
000090 99 86 8e 3f f1 0f b1 3e 47 a7 aa 3f be cd e5 bf
       1.1134826 0.34582475 1.3332299 -1.7953413
0000a0 ca 8a 9b bf 68 5f 57 bf 18 8f a0 bf 93 f9 cc 3f
       -1.215173 -0.84129953 -1.2543669 1.6013664
0000b0 b3 d3 eb be 8a 3a 5a 3f 35 54 6d bf 2e 02 95 3f
       -0.4605995 0.85245574 -0.92706615 1.164129
0000c0 14 d9 e3 be 48 db e3 bf 1b 6b 50 3f 02 6d 6c 3e
       -0.44501555 -1.7801294 0.8141343 0.23088458
0000d0 be aa a7 3f 8f 30 60 3f 3a a7 48 be bf 72 d2 3f
       1.3098981 0.87574095 -0.19595042 1.6441268
0000e0 f8 68 1e 3f eb fe 7e bf ef b8 7f bf 74 30 a2 bf
       0.6187892 -0.99607724 -0.9989156 -1.2671037
0000f0 20 80 ab bf 5f 11 ba be 64 57 8e bf 9f 13 c1 be
       -1.3398476 -0.36341378 -1.112042 -0.37710282
000100 03 0d 5f 3f 58 6c ef 3d 51 db 7f 3f 7c 9c e3 be
       0.8712923 0.11690587 0.99944025 -0.44455326
000110 c3 80 ed bf ed 49 9a bf 6c 6f b1 bd 3f b0 e3 3f
       -1.855492 -1.205381 -0.0866383 1.7788161
000120 0e ce ea be 9e df b8 3e 88 1c 0c 3f a6 8b 8b bf
       -0.45860332 0.36108106 0.54731035 -1.0901992
000130 d4 e1 6b bf 38 2f 43 3f b7 38 61 bf 02 04 51 3f
       -0.9214146 0.76243925 -0.87977165 0.8164674
000140 86 91 c8 bf 02 9b 9d bf d6 48 a6 bf 67 a7 a2 3f
       -1.566941 -1.231293 -1.2990978 1.2707337
000150 30 53 99 bf f6 5e 2c 3f 76 bd 9d 3f 2d 57 9c 3f
       -1.1978512 0.673324 1.2323444 1.2214104
000160 d6 2d 0f bf 1e a5 7a bb e0 de 0e 3f 3b 0d 84 bf
       -0.55929315 -0.003824539 0.5580883 -1.0316538
000170 6f f2 84 3f 44 14 cf bf 8f 31 a0 3f a4 e3 fa 3e
       1.0386485 -1.617806 1.2515124 0.490018
000180 92 4f 9a bf 1b a5 56 bf f6 fc b2 3f 9b e4 e9 3f
       -1.2055533 -0.8384568 1.3983448 1.827289
000190 c1 6a ca bf f5 11 71 3f ed 86 c0 3f fb 90 e8 bd
       -1.5813829 0.94168025 1.5041176 -0.11355778
0001a0 ba d5 3f 3f 38 e6 c7 bf 5a 6f a9 3f 6a 14 b4 3f
       0.74935496 -1.5617132 1.3237107 1.406873
0001b0 45 14 ba bf dc 35 a8 3f cc 0b 5a bf a4 43 c2 3f
       -1.4537436 1.3141437 -0.8517425 1.5176892
0001c0 33 dd 84 bf 4c 01 a5 bf a7 dc b0 3f 24 31 ba 3f
       -1.0380005 -1.2891021 1.3817338 1.4546247
0001d0 79 b5 53 3f 22 40 34 bf d4 7b 91 3f fd d5 78 3f
       0.8269878 -0.7041036 1.1365914 0.9720152
0001e0 8c 5c ad be ab de 76 3f 3e ee a3 be 5c 3e 89 bf
       -0.3385967 0.96433514 -0.32017702 -1.0722156
0001f0 a0 03 de 3e 3b 46 8d be f8 51 cc 3f b8 92 5c bf
       0.4336214 -0.27592644 1.5962515 -0.86161375
000200 be 0b 03 3f 07 66 bd bf e4 b0 ce 3f c0 0f d3 3d
       0.5118979 -1.4796761 1.6147733 0.103057384
000210 a9 5a bb be 30 fd a5 bf 57 c6 7c bf 55 8c 3f bf
       -0.36592606 -1.2967892 -0.9874014 -0.74823505
000220 e8 10 a5 bf e7 5f 8a bf be ac 4f 3e 64 67 cc be
       -1.2895784 -1.0810517 0.2028074 -0.3992263
000230 02 03 77 bf 5f d1 46 bf c7 49 ce 3e 92 58 98 bf
       -0.96488965 -0.77663225 0.40290663 -1.190203
000240 8f 57 6a 3f d7 23 d6 3f f8 6a ca bf c2 ca 55 3f
       0.91539854 1.6729687 -1.5813894 0.8351251
000250 1b e5 98 bf 06 2a a8 3f bf dc 46 bd 3b 01 9c bf
       -1.1944917 1.3137825 -0.048550364 -1.2187876
000260 02 fb bd 3f 72 6e aa bf 19 f1 68 bf 3d 49 a9 bf
       1.4842227 -1.3314955 -0.90992886 -1.3225476
000270 68 e7 3e bf 96 28 27 bf dc 4f c0 3f 3a 6a 06 bf
       -0.7457185 -0.65296304 1.5024371 -0.5250584
000280 71 d2 dd bf 92 e2 1d be 74 22 b1 bf 76 91 12 3e
       -1.7329847 -0.15418461 -1.3838639 0.14313301
000290 65 e9 cd bf 6e d1 af 3f 2f 79 10 3f ab ea 92 bf
       -1.6086851 1.3735788 0.5643491 -1.1477865
0002a0 a0 67 f5 3e 6f 10 52 bf 1e 14 dc 3f 85 75 1b 3e
       0.47930622 -0.82056326 1.7193639 0.15181549
0002b0 ab 15 3b bf 74 34 a4 be 4e 9d 08 3f 23 13 9a 3f
       -0.7307994 -0.3207127 0.5336503 1.203709
0002c0 c6 66 47 3e 11 41 d7 be 63 7e 5a 3f ad 83 8a 3f
       0.19472799 -0.4204183 0.853491 1.0821434
0002d0 87 ea 9f bf db a4 d2 bf da 42 e2 bf 3c ae 8b 3f
       -1.2493447 -1.645656 -1.7676651 1.0912547
0002e0 44 48 02 3f 93 ca c4 3e be 03 fc bd 1e 4f 00 be
       0.5089152 0.38435802 -0.12305401 -0.12530181
0002f0 e7 21 b1 3f 17 f5 e3 3f 74 cf 9d bf 51 01 b5 bf
       1.3838471 1.780917 -1.2328935 -1.4141027
000300 83 76 31 bf 8a 91 88 bc 94 9d b6 3f 65 dc a1 3e
       -0.6932146 -0.016670961 1.4266839 0.3161346
000310 43 a8 fe 3e 48 68 bf 3f 7c 6c e9 3f dd cf e1 3f
       0.49737749 1.4953699 1.8236232 1.764156

differentiable_model.linear2.weight f4 [200, 200]
000000 28 f0 42 3d 34 f3 33 be c4 5d 9a 3d 0d c1 1e 3e
       0.047592312 -0.17573243 0.075374156 0.1550333
000010 bb 72 c4 3a cd b6 22 3e 78 61 e2 bc 67 40 a8 3d
       0.0014987806 0.15890045 -0.027634367 0.08215409
000020 9f 93 8a 3d 35 fd d6 bd 45 3b 77 bd 1c 06 f2 bc
       0.06766438 -0.10497514 -0.06035926 -0.029543929
000030 72 52 9f 3d 25 7f 51 3d 84 ca 96 bc 18 11 dd 3d
       0.07779397 0.051146645 -0.018407114 0.10794276
000040 7d e0 39 3d 9a e5 07 3d 11 6a 19 3d 32 30 bc bc
       0.045380104 0.03317795 0.03745467 -0.0229722
000050 21 2f 8d 3d 9a 03 ec 3e e8 43 9a 3e 35 69 08 bd
       0.06893755 0.46096498 0.30129933 -0.03330346
000060 67 4a fd bd e1 2c f1 3d 5e 87 12 3d 5b 3b 9c 3d
       -0.12367707 0.11776138 0.035773627 0.07628509
000070 be 8d a2 bc 16 d5 d0 bd e4 69 6a 3d 31 29 07 be
       -0.019842979 -0.10196893 0.05722989 -0.13199307
000080 e7 81 8f bc 22 91 ce be be 8b ea 3e 5c 6f 31 3d
       -0.017517997 -0.40345103 0.4580974 0.04331909
000090 e5 fc 4b bd 6f bb 97 3c de 71 d2 bd f8 aa 12 3e
       -0.049801726 0.018521992 -0.10275625 0.14323032
0000a0 6d 75 a1 3d a4 5a db bd 13 a2 ae 3c 05 b5 a9 3c
       0.07883725 -0.10710648 0.021317517 0.0207162
0000b0 f7 4f 88 3d 11 7e dd bd 78 90 81 3e 41 2b 24 bd
       0.06655877 -0.10815061 0.25305533 -0.040080313
0000c0 d1 14 c4 bc 58 c9 e5 bd d9 e2 89 bd aa 29 6b 3d
       -0.023935707 -0.11220044 -0.06732721 0.05741278
0000d0 c9 60 cf be 40 5d a2 be 76 06 82 bc 15 07 da bd
       -0.4050353 -0.3171177 -0.015872221 -0.10645882
0000e0 c3 e6 f7 bd 8d 05 be bd 1f 55 52 3e 2a a9 e7 3d
       -0.12104561 -0.092784025 0.20540284 0.11311562
0000f0 e9 e4 81 3e aa 8e f4 3b b6 ad d1 bd 28 ba e9 bc
       0.25369957 0.007463296 -0.10238211 -0.028531149
000100 4a 61 75 be c3 d2 ae bd 6b 1d 80 3d b0 d3 42 3c
       -0.23962894 -0.08536293 0.06255611 0.011891291
000110 0a 9c 8c 3d 88 01 2d be 79 89 b8 3d cc 11 69 3d
       0.068656996 -0.16895115 0.09010596 0.056901738
000120 1f 6d e3 3c 4c 54 0a 3c 62 cc 3f bb 18 7b 04 3e
       0.027761994 0.0084429495 -0.0029266109 0.12937582
000130 12 ab fd 3c 4d 2d c5 be 30 71 97 3e 32 b1 91 be
       0.030965362 -0.38511124 0.29578543 -0.28455502
000140 aa f9 bf 3d e3 e4 e3 3c b8 5a b6 3e 0e 20 f9 bd
       0.093737915 0.027819103 0.35616088 -0.12164317
000150 a4 42 68 bd 84 60 10 be c8 7e 3f bd a9 bb 2e be
       -0.05670418 -0.14099318 -0.046751767 -0.17063774
000160 77 66 78 3e 71 6a 4f bd 6f a3 a6 be cf 9b ff ba
       0.24257837 -0.05063862 -0.32546565 -0.0019501391
000170 1a c3 72 be 2c 6c 27 3e 45 2a ec bb fa 64 94 be
       -0.23707238 0.16349858 -0.0072071874 -0.2898329
000180 bc a6 8e 3e 90 31 7d 3e 29 a3 4e be f4 a5 e6 bd
       0.27861583 0.24725938 -0.20179428 -0.11262122
000190 42 ba e3 3c ab 05 99 3d c8 1b 17 3d 5d e0 7e 3a
       0.027798776 0.07471784 0.03689173 0.0009722764
0001a0 76 3c cd 3d 23 a3 bc bc dd 5b ea bd 09 89 9a bd
       0.10021298 -0.023027008 -0.11443303 -0.07545669
0001b0 ca 32 e3 3d 7d af 81 bd 13 a2 9a 3e 03 c5 0c be
       0.110936716 -0.063323 0.30201778 -0.13747029
0001c0 fb 01 4b 3e 9b 24 d8 3d e6 a4 99 bc d9 ca 9b bd
       0.19824974 0.10553857 -0.018755388 -0.076070495
0001d0 f6 93 9b 3c f9 14 d5 3c 1d f0 5b bd fe f3 52 bd
       0.018991452 0.026010977 -0.053695787 -0.05150222
0001e0 b2 b3 aa 3e 55 94 94 bd a5 12 00 3e 95 f8 02 3f
       0.33340222 -0.072548546 0.12507112 0.51160556
0001f0 67 b2 b4 3d 1e 4b 85 3d 43 7f 96 bd 52 19 b2 bd
       0.0882309 0.06508468 -0.07348492 -0.08696236
000200 12 e7 35 3d 2a 0a 1b 3d b0 df 4d bd 43 ae 87 3c
       0.04440982 0.03785149 -0.050262153 0.016562587
000210 e4 e4 9b 3d 4e 1e 12 3e d8 eb a8 3e 3f be 45 3e
       0.07612017 0.14269373 0.32992435 0.19310854
000220 60 71 17 ba 40 e5 7a 3e af e1 70 be 13 81 09 bd
       -0.0005777087 0.24501514 -0.23523591 -0.03357036
000230 09 bb c8 3e 72 39 b7 3d 6a 61 6e be 8e 21 ac 3d
       0.39205196 0.08946504 -0.23279348 0.084048375
000240 f4 ab 75 bd 0d 01 21 bd 8c 55 84 3d 6c f0 b4 be
       -0.05997844 -0.039307643 0.06461629 -0.35339677
000250 c6 5e f6 3c 92 19 c9 be 48 63 10 bd 7a 83 c3 3e
       0.030074488 -0.3927732 -0.035250932 0.38186246
000260 31 eb a6 ba 73 04 83 bd a1 a7 c4 3c aa 64 ff 3d
       -0.0012734887 -0.06397333 0.024005713 0.12470372
000270 e9 e7 86 3e d6 1e 61 3e d8 34 c4 bc 59 e0 4b 3e
       0.26348808 0.21984419 -0.02395098 0.199098
000280 8c 99 8c bd 7e 87 30 3d bd 5f 20 3e 18 9a e8 3c
       -0.06865224 0.043097965 0.15661521 0.02839379
000290 86 8d 3d 3d c8 8f 63 be e8 d3 5e be 62 af c9 bd
       0.046277545 -0.22222817 -0.21760523 -0.09847905
0002a0 f3 b3 a6 3d 8f ad 75 3c 5f 55 73 bd e0 21 9e 3d
       0.08139791 0.014994993 -0.059407588 0.07721305
0002b0 41 6d 83 3e df 3f 4e 3d ba 37 0d be f9 c2 a9 3d
       0.25669292 0.05035388 -0.13790789 0.08289141
0002c0 01 d3 20 bd 34 7a 75 bc 10 46 af be 1d a5 ec be
       -0.03926373 -0.014982749 -0.3423314 -0.4621972
0002d0 d1 a2 7d 3d b2 13 99 bd 46 b0 90 3d 8e 06 b8 bc
       0.061922852 -0.0747446 0.070648715 -0.022464063
0002e0 a1 e7 3d be 61 2c 3c bd 9b 75 79 3d 1a 88 57 3d
       -0.1854539 -0.04594076 0.060903173 0.05262003
0002f0 e7 28 23 be 16 4d c9 3c b3 01 ad 3d cc bf 2a 3e
       -0.15933572 0.02457289 0.0844759 0.16674727
000300 9e a9 d9 3b 37 62 6a 3d c7 ec 0d 3e 14 8c 14 be
       0.0066425344 0.05722257 0.13859855 -0.1450656
000310 dc 65 7c bb 8b b1 dc bc 05 14 17 bc 08 d4 a8 3d
       -0.0038512861 -0.026940128 -0.009221082 0.08243567
000320 31 b6 42 be 85 bb 35 be e4 a3 8b 3e c1 9f 8c be
       -0.19014813 -0.17747314 0.27273476 -0.27465633
000330 a4 1a 2b 3d 51 3a b7 be 0a 8c 03 bd 58 30 8e bd
       0.041773453 -0.3578668 -0.032115974 -0.069428146
000340 69 63 03 3e 6b f8 80 bd 43 fc 15 3e 61 ef 2b 3e
       0.1283089 -0.06297382 0.14647011 0.16790535
000350 bc ad 50 be 27 df 25 3d ef d5 45 3d 56 9a 06 3e
       -0.20378774 0.040496018 0.048299726 0.13144812
000360 9d 73 96 3d c6 5d 00 be 5d 15 c5 3d ef b7 71 3f
       0.0734627 -0.12535772 0.09623215 0.94421285
000370 ed 67 8b be 95 2c e6 3d 09 d8 92 3e 0a ac 59 3d
       -0.27227727 0.11238972 0.28680447 0.053142585
000380 a8 f6 7a be 28 5e fb be 92 2f b3 bd a0 6f 57 3e
       -0.24508154 -0.49095273 -0.08749308 0.21038675
000390 36 04 d3 3d 0d 83 8d be 9f d7 08 3e d6 de e3 3e
       0.103035375 -0.27639046 0.13363503 0.44505948
0003a0 6e 32 16 be 1a 84 94 be 08 55 cb bd 51 18 3f 3d
       -0.14667675 -0.29007035 -0.09928328 0.04665405
0003b0 28 f1 43 be 35 f8 40 bd 97 22 bc be b8 4d a7 3e
       -0.19134963 -0.04711171 -0.3674514 0.32676482
0003c0 49 32 96 bf 95 a8 6b bf e7 4d 35 3e 1f bd 35 be
       -1.1734096 -0.9205411 0.17705499 -0.17747925
0003d0 e9 29 b1 bc 14 3b 9c bd 6b 18 e9 3d 81 8f 5b bd
       -0.02162643 -0.07628456 0.113816105 -0.053603653
0003e0 ae e6 98 3d 49 9c 65 3e fb 7a 85 3f 97 6b 5b 3f
       0.07465874 0.224229 1.0428156 0.85711044
0003f0 22 69 76 3e ed d7 39 be a7 2c 0c 3e 46 ae 56 bd
       0.24063542 -0.18148775 0.13688909 -0.052412294

differentiable_model.linear2.bias f4 [200]
000000 7a 3f cb be 3a 0e c5 3e dc a8 59 be 1e ef 49 be
       -0.39696866 0.38487417 -0.21255821 -0.19720122
000010 4d 9a c5 be b9 20 12 3e f0 aa bb 3e af 06 44 be
       -0.38594285 0.14270295 0.36653852 -0.19143175
000020 58 7e 91 be e8 5f 22 be a3 40 94 be 93 e9 c4 3e
       -0.28416705 -0.15856898 -0.28955564 0.38459453
000030 8f fe 82 3e 9b 9a 9b be 9c 43 b7 be 6f bd 99 be
       0.25584838 -0.30391392 -0.3579377 -0.3002734
000040 10 3a b2 be da 41 93 be 79 25 72 be 20 4a 7d 3e
       -0.34809923 -0.28761178 -0.23647107 0.24735308
000050 09 c0 bc be 59 51 b0 be bd 58 67 be 93 58 85 3e
       -0.3686526 -0.34437063 -0.22592445 0.2604414
000060 be f4 73 3e 54 7e 87 3e 4b 7d c7 3e 3d 84 37 3e
       0.2382383 0.26463568 0.38962778 0.17921539
000070 47 e4 67 be 37 a1 a3 3e 1d c5 77 3e 3e d4 ae be
       -0.22645675 0.31958935 0.24196286 -0.34146303
000080 82 03 66 be de 55 8b 3e 3b 25 bf be cc f7 83 3e
       -0.22462276 0.2721395 -0.37333092 0.25774992
000090 ac 9b bf bd df 7a 2b be a4 c4 87 3e cf c6 9e be
       -0.09355864 -0.1674609 0.26517212 -0.31011054
0000a0 ff b4 9d 3e fd de 6d be a4 66 81 be 00 a1 99 3e
       0.30802152 -0.23229595 -0.2527362 0.30005646
0000b0 59 47 ee be 3d ec 10 bf 52 86 af 3e d1 e3 a2 3e
       -0.4653881 -0.5661047 0.34282166 0.31814435
0000c0 12 45 46 be 10 8f ad be 90 88 96 3e 8c 6f 9e 3e
       -0.19362286 -0.3389821 0.29401064 0.3094448
0000d0 b7 1e 23 3f 36 09 b1 be 67 f0 cd be 16 98 83 be
       0.6371874 -0.3457734 -0.40222475 -0.2570197
0000e0 48 2b fc bd 49 19 bf be ef 8c 9e 3e a2 5a b0 be
       -0.12312943 -0.3732398 0.309669 -0.34444147
0000f0 4b 96 bc be 5e 56 4c 3e a2 1c ce 3e 15 cb 8e 3e
       -0.36833414 0.19954821 0.4025622 0.27889314
000100 f3 3f ba be 15 e0 52 be 4c a2 a8 3e f3 40 83 be
       -0.36376914 -0.20593293 0.32936323 -0.2563549
000110 54 26 82 be 23 ba aa be 49 fa ab 3e c3 15 a6 3e
       -0.25419867 -0.33345136 0.3358939 0.32438478
000120 a1 86 9e be 2e ac 7f be 33 18 97 3e 45 41 8a be
       -0.3096209 -0.24968025 0.2951065 -0.27002922
000130 15 59 7c 3e 8a 3f 62 3e 67 00 ab be 0d db 14 be
       0.24643357 0.2209455 -0.33398744 -0.14536686
000140 b4 50 02 3e 5c 6a a4 be 86 94 a0 be 82 a0 3c be
       0.12726098 -0.32112396 -0.31363314 -0.18420604
000150 ee 05 96 3e c2 ff 9a be 2c 36 8c be 4c 84 b6 be
       0.293014 -0.30273253 -0.2738508 -0.3564781
000160 a0 93 b8 be d8 a8 7a be 6e 16 89 3e 9b de c8 3e
       -0.3605013 -0.24478471 0.26774925 0.39232334
000170 e1 6e b5 3e 7b 74 b4 be 13 ba 86 3e 3a df d8 be
       0.35436156 -0.35245118 0.26313838 -0.42357808
000180 df 59 a1 3e 39 05 88 3e 9c 70 05 bf 95 49 c5 3e
       0.3151388 0.26566485 -0.52124953 0.385327
000190 87 d1 8a 3e af 21 8e be 3f b8 5e 3e 01 0e 96 3e
       0.27112982 -0.27760074 0.21749972 0.2930756
0001a0 cf 04 83 3e 68 87 78 be 17 8c 81 be a6 0d 8c be
       0.25589606 -0.24270403 -0.25302193 -0.27354163
0001b0 35 0d 8b be d3 96 9d be 57 c1 77 be 60 6f c7 be
       -0.27158514 -0.30779132 -0.24194847 -0.3895216
0001c0 77 e6 86 3e 9b 17 76 be 71 6f 59 3e 15 9c 8b 3e
       0.26347706 -0.24032442 0.21233918 0.2726752
0001d0 82 f4 bf 3e 23 02 37 be 31 99 93 3e 04 a3 f8 be
       0.37491232 -0.17871909 0.28827813 -0.4856187
0001e0 39 97 d1 be 81 36 97 3e 6d ff ca 3e 9e ba 04 bf
       -0.40935686 0.2953377 0.39648 -0.51847255
0001f0 29 e8 9c be 71 84 ad 3e 3b 7d a7 be c6 e8 70 be
       -0.30645874 0.33890107 -0.3271273 -0.23526296
000200 00 a4 92 3e 52 d0 b7 be 99 af 7c 3e 7f de d3 3e
       0.28640747 -0.35901123 0.2467636 0.4138069
000210 f8 a4 5f be b0 13 c0 be 65 1c c2 3e bd 22 8e 3e
       -0.21840274 -0.3751502 0.37912288 0.27760878
000220 74 f7 6a 3e 35 d1 c5 be e5 02 ae be ca 2f 69 be
       0.22945958 -0.38636175 -0.33986583 -0.22772136
000230 98 eb 69 3e 62 02 a6 be ac a5 d1 3e 34 0f 71 3e
       0.22843778 -0.32423693 0.4094671 0.23540956
000240 54 a8 83 3e b7 9b 93 3e 02 6b d5 3d 9d 79 6e be
       0.25714362 0.28829738 0.10420801 -0.2328858
000250 59 47 8e be a2 85 55 3e 7b 22 a5 3e 0c 45 1c 3e
       -0.2778881 0.20851758 0.3225287 0.15260714
000260 2b 04 68 be f4 e4 98 3e 3b f2 9a be 9c e5 77 be
       -0.2265784 0.29862177 -0.30262932 -0.24208683
000270 38 5e 97 be bc 0e 90 be 18 8a cc be 44 3f 2e 3e
       -0.2956407 -0.2813624 -0.39949107 0.17016321
000280 60 75 cd be 23 43 d5 3e 1b b2 ba be 76 20 c2 3e
       -0.40128613 0.41652784 -0.3646401 0.3791539
000290 fc b4 86 be e7 a4 7d be 48 1d b9 be b8 a0 b3 3e
       -0.26309955 -0.24769937 -0.36155152 0.35083556
0002a0 2c d8 a8 be 0a 25 bb be f6 21 80 3e fe 88 cf be
       -0.32977426 -0.36551696 0.2502591 -0.40534204
0002b0 aa ed 8f be 36 8a da be 9c 51 3e be 72 ba 84 3e
       -0.2811101 -0.42683572 -0.18585819 0.25923496
0002c0 bf 75 86 be 34 f3 9a 3e 5a 31 5f be c9 ad b3 3e
       -0.26261708 0.30263674 -0.2179617 0.35093525
0002d0 80 c1 01 3f 61 1e a0 be 7f e1 83 3e cb f1 a3 3e
       0.5068588 -0.31273177 0.25757977 0.3202041
0002e0 94 00 ba 3e 21 9e c1 3e e1 49 76 be 43 9f 8c 3e
       0.36328566 0.37815955 -0.2405162 0.27465257
0002f0 3e 56 b4 be 52 c2 94 be 3e 71 65 3e ed 93 ac 3e
       -0.35222048 -0.29054505 0.2240648 0.33706608
000300 a0 a5 17 3e c0 c4 c5 be ba 40 ae be 95 02 c8 be
       0.14809275 -0.3862667 -0.34033757 -0.3906447
000310 c1 ef 88 be 47 de a3 be 9b ec 8d 3e 38 fe 09 be
       -0.26745418 -0.32005522 0.27719578 -0.13475883

differentiable_model.linear3.weight f4 [2, 200]
000000 b2 a5 fd bf 02 3c 07 c0 d5 9f e6 bf 9d 83 eb bf
       -1.9816191 -2.1130376 -1.8017527 -1.839954
000010 2c 05 e1 bf 45 ad e5 3f 9c 7d e3 3f 77 51 e8 bf
       -1.7579703 1.7943503 1.7772708 -1.8149861
000020 d2 32 e4 bf be cb f7 bf 16 4b de bf 05 ea de 3f
       -1.7828009 -1.9359052 -1.7366664 1.7415167
000030 10 00 eb 3f 64 0e e4 bf c3 dc e0 bf b0 6f e2 bf
       1.8359394 -1.7816892 -1.7567371 -1.7690334
000040 0c 28 fb bf d4 4e ef bf af 6b de bf 58 22 e7 3f
       -1.9621596 -1.8695931 -1.7376612 1.8057356
000050 9f 0e e2 bf 41 02 de bf cd 18 e1 bf 38 c0 e4 3f
       -1.7660712 -1.7344438 -1.7585694 1.787116
000060 f7 5a de 3f 10 e9 e1 3f e5 34 df 3f 14 7d ef 3f
       1.737151 1.764925 1.7438017 1.8710046
000070 c5 a5 ed bf 0d f7 e1 3f ef fb e6 3f 0f 7b e1 bf
       -1.8566214 1.7653519 1.8045634 -1.761568
000080 18 f8 ee bf d7 0d e2 3f d3 5d e0 bf 4e 52 ec 3f
       -1.8669462 1.7660474 -1.7528633 1.8462617
000090 3a 97 f7 bf 3e 18 f4 bf 27 84 e0 3f 37 0a ed bf
       -1.9343026 -1.9069898 1.754033 -1.8518742
0000a0 bc 49 ec 3f 45 fc e5 bf c6 05 e6 bf a6 a9 db 3f
       1.8460002 -1.7967612 -1.7970512 1.7161148
0000b0 fb 22 e5 bf b0 70 dd bf c7 9f e9 3f 8a 49 ea 3f
       -1.79013 -1.7300014 1.8251885 1.8303692
0000c0 8d 49 e8 bf e5 26 e7 bf 9b d8 f0 3f 83 52 de 3f
       -1.8147446 -1.8058745 1.8816103 1.736893
0000d0 30 31 f8 3f ce 1f 09 40 b3 b3 db bf 14 84 e4 bf
       1.9390011 2.1425662 -1.7164215 -1.7852807
0000e0 6b 25 ec bf 31 50 e7 bf 6b ad f2 3f 29 b7 df bf
       -1.8448919 -1.8071347 1.8959173 -1.7477771
0000f0 64 fc e2 bf 0f 36 f8 3f f2 36 e6 3f 48 d9 ee 3f
       -1.7733274 1.9391497 1.7985518 1.8660059
000100 40 f9 dd bf 06 1d e3 bf b8 a1 e5 3f 30 bf dd bf
       -1.734169 -1.7743232 1.7939978 -1.7323971
000110 11 ae de bf 68 12 e0 bf 47 70 e5 3f 80 e4 eb 3f
       -1.7396871 -1.7505617 1.7924889 1.8429108
000120 b8 04 e2 bf 87 69 dd bf 86 75 e2 3f 80 f4 e4 bf
       -1.765769 -1.7297829 1.7692115 -1.7887115
000130 24 da de 3f 27 68 e8 3f 56 43 e4 bf 06 0b fe bf
       1.7410321 1.8156785 -1.7833049 -1.9847114
000140 59 2a f9 3f ea 1c f6 bf 7e c0 e4 bf 34 27 eb bf
       1.9466048 -1.9227574 -1.7871244 -1.8371339
000150 e8 f9 e4 3f 52 87 dd bf c3 a6 df bf 9e 63 ee bf
       1.7888765 -1.7306921 -1.7472767 -1.8624151
000160 b4 86 e1 bf f1 31 df bf 6f c0 fd 3f b6 f1 e2 3f
       -1.7619233 -1.7437116 1.9824351 1.7730014
000170 8c 69 e6 3f 6d e7 e8 bf 90 98 ed 3f b5 b3 e0 bf
       1.800096 -1.8195626 1.8562183 -1.7554842
000180 44 68 e5 3f 0d 80 df 3f 98 1b 06 40 56 0a f0 3f
       1.7922444 1.7460953 2.0954342 1.8753154
000190 7c e4 de 3f 51 dc e3 bf 64 ea f0 3f 08 55 e7 3f
       1.7413478 -1.780161 1.882153 1.8072824
0001a0 d1 92 e2 3f 3c bd f0 bf ff ed e1 bf 6a de df bf
       1.7701055 -1.880775 -1.7650756 -1.748975
0001b0 3b 96 e3 bf d2 a5 df bf 68 09 e5 bf 73 7f ee bf
       -1.7780222 -1.7472479 -1.7893496 -1.8632644
0001c0 f5 c0 e2 3f 6a 9d eb bf 5e e4 ea 3f c1 37 e0 3f
       1.7715136 -1.8407414 1.8350942 1.7517015
0001d0 d2 fc dc 3f 8d a9 ef bf dc 79 e1 3f 40 14 fb bf
       1.7264655 -1.8723618 1.7615314 -1.9615555
0001e0 24 d4 e6 bf de 2a e3 3f 63 1d de 3f 59 d2 01 40
       -1.803349 1.7747457 1.7352718 2.0284636
0001f0 0c ca f0 bf e3 94 e2 3f 71 ce f1 bf f0 ed ec bf
       -1.881166 1.7701687 -1.8891126 -1.8510113
000200 e5 cf ea 3f ca 37 e3 bf 52 2e e6 3f 99 bf f0 3f
       1.8344694 -1.77514 1.7982886 1.8808471
000210 f5 f9 e8 bf a7 2d ec bf 41 9c e1 3f 13 e9 e4 3f
       -1.8201281 -1.8451432 1.762581 1.7883629
000220 e8 70 df 3f d0 a4 df bf 0e 4c ef bf 9c bb ee bf
       1.7456331 -1.7472172 -1.8695085 -1.8651004
000230 a8 f6 ef 3f 0e 60 df bf fb c8 e0 3f 25 cf eb 3f
       1.8747149 -1.7451189 1.7561334 1.842259
000240 a2 3c eb 3f 41 57 e4 3f c4 0a f2 3f ae 23 eb bf
       1.8377879 1.7839128 1.8909535 -1.8370264
000250 0d cf e0 bf 92 0c ef 3f 04 bf f3 3f 42 d9 ee 3f
       -1.7563187 1.8675711 1.9042668 1.8660052
000260 ec 22 e4 bf 56 60 e5 3f 35 ca e6 bf 0e 16 ee bf
       -1.7823157 1.7920024 -1.8030459 -1.860048
000270 bf 6c e3 bf c5 28 ea bf ff 58 e6 bf a9 21 e4 3f
       -1.7767562 -1.8293692 -1.799591 1.7822772
000280 27 26 de bf dc 17 df 3f 0a a5 dc bf f6 f0 e7 3f
       -1.7355393 1.7429156 -1.7237866 1.812041
000290 50 25 e9 bf 2a a7 eb bf ad 41 df bf d6 b9 e9 3f
       -1.8214512 -1.841039 -1.7441918 1.8259838
0002a0 4b 6e e3 bf eb 4a ef bf 97 cc e3 3f 4b 7c f2 bf
       -1.7768034 -1.8694738 1.7796811 -1.8944181
0002b0 69 fe e2 bf fe d8 e2 bf 5c cd e5 bf 8d 4f f2 3f
       -1.773389 -1.7722471 -1.7953296 1.8930527
0002c0 c1 99 e3 bf db af ee 3f 36 1a ed bf 62 1b e6 3f
       -1.7781297 1.8647417 -1.8523624 1.7977107
0002d0 eb 3e 03 c0 b8 84 db bf 5f ab e1 3f 07 26 f4 3f
       -2.0507152 -1.7149878 1.7630423 1.9074105
0002e0 76 af e5 3f 92 25 02 c0 50 b2 e2 bf 0e 3b ef 3f
       1.7944171 -2.033543 -1.7710667 1.8689897
0002f0 3d c5 de bf f1 60 e9 bf 8b 65 e7 3f 24 e8 e1 3f
       -1.7403942 -1.8232709 1.8077863 1.7648969
000300 a0 16 f1 3f 26 9a ec bf 9f 57 e6 bf a3 c3 e0 bf
       1.883503 -1.8484542 -1.799549 -1.7559704
000310 01 5c e0 bf 13 9a e3 bf 73 3e de 3f eb 4f ed bf
       -1.7528077 -1.7781395 1.7362808 -1.8540014
000320 e0 6e 08 3e fe 22 fd 3b 7b 25 4e 3c 78 44 9e 3d
       0.13323545 0.0077251187 0.012582178 0.07727903
000330 f1 7b 1e be 49 37 4a be 60 90 aa bd 26 57 28 3d
       -0.15476967 -0.19747652 -0.083283186 0.041098736
000340 c2 64 2e 3d 7b 11 1e 3d 04 f3 9e 3e 17 52 03 be
       0.04257656 0.03859089 0.3104478 -0.12824284
000350 6a ff 48 3d 7c 6f 13 bd b1 45 24 3d 0c 1c cb 3d
       0.049071707 -0.03599499 0.040105525 0.09917459
000360 f6 d0 ee bc 62 06 1f be ad 90 cd bc db bb ef bd
       -0.029152375 -0.15529779 -0.0250934 -0.117057525
000370 7b f0 26 3e 95 3a 27 bd 43 6f 2c 3d 54 5a 3f be
       0.16302674 -0.040827353 0.042098295 -0.18686801
000380 f9 a3 66 be fe 0f b1 bd 66 79 a8 3c 33 e8 c5 3d
       -0.22523488 -0.086456284 0.0205657 0.09663429
000390 26 c6 2c 3c 81 ff ee 3c 4d bf 58 3d d0 0b 3d be
       0.010545289 0.029174568 0.052916814 -0.18461537
0003a0 0a ac 2e 3c 3e c8 9b 3d 2d af 76 3d dd 58 bd 3c
       0.0106611345 0.076065525 0.060225654 0.023113662
0003b0 ee 21 45 be 78 60 98 bd 87 b9 df b9 d6 61 4d bd
       -0.19251224 -0.07440275 -0.00042672103 -0.05014213
0003c0 df fa 46 3d 68 bb f3 bd fc 45 4d bd b5 29 b0 3c
       0.048579093 -0.11900979 -0.05011557 0.021504262
0003d0 a7 af 36 bd c9 61 12 be c3 fa 02 bc 45 b8 c5 3d
       -0.04460111 -0.14295115 -0.007994357 0.09654287
0003e0 27 66 9d 3d e2 16 03 3e 0e 8b 82 be 9b 91 3f bd
       0.076855 0.12801698 -0.25496715 -0.04676972
0003f0 f0 60 fb 3d b8 86 10 3e 89 b3 37 bd 9f 8d 4e 3b
       0.12274349 0.14113891 -0.044848952 0.0031517518
