MLP/model-MLP.tar (torch, 166747 bytes, 5 tensors)

differentiable_model.linear1.weight f4 [200, 2]
00000000: 5ce4 9e3f 99e5 20c0 9f19 f43f 96bc 2bc0
00000010: 6d5f 543c 50e7 0740 ca29 0ac0 84cc 1440
00000020: 2961 4fbf c272 2fc0 23d2 59bf b486 df3f
00000030: 9ebd f9be 6259 31c0 c548 11c0 dd48 2140
00000040: 0ff5 df3e a293 31c0 02bd 913f 6a4c 16c0
00000050: ef14 fc3f 3161 eebf 73d3 1140 d1b1 26c0
00000060: dc3e 8ebf 64d4 2c40 4b89 edbe ddf5 4440
00000070: 8a25 99bf 6a62 2040 37e8 dd3e 9f11 40c0
00000080: 60cc 43bf f331 38c0 b08d 32bf 2d78 2140
00000090: 4e92 12c0 edd4 2940 16e6 09c0 a72d 1940
000000a0: add3 a8bc 673e 40c0 2c77 003f 7744 3440
000000b0: a47b eebf 9349 3740 301b 7c3f 0866 3dc0
000000c0: fc22 85be 0926 43c0 75e6 30bf c803 2840
000000d0: 60ee 8c38 1893 3140 1e66 a5bf 3613 2640
000000e0: abb4 113e a915 4540 2ccf 50be a948 2fc0
000000f0: 0577 af3e c560 3140 597c f0be e7af 4140
00000100: 2a24 683f 5fb1 24c0 0dc7 1c40 2f3a 2cc0
00000110: 0afd eebe 47ee 2140 9651 10c0 dfc0 2440
00000120: ff7c 4d3e 05b8 e8bf fe99 67bf a5f3 2540
00000130: e24e e43f 671c 2dc0 4869 a53f 195e 19c0
00000140: 96d2 0440 112c 09c0 30d0 e93f 9b3a 0ec0
00000150: 09a2 0e40 0776 22c0 8c9b 05c0 8f52 0c40
00000160: def4 0a40 99a9 17c0 2ee2 bdbe eec1 44c0
00000170: 101a 9f3d 2f4b 623f 7548 79bf b3bc 2940
00000180: 5e79 03be ab6a 4b40 935a 0040 5638 09c0
00000190: d874 0dc0 bcc3 1b40 39ba 0cc0 a6ce 1f40
000001a0: 76fe fabf 46ad f43f a8c6 f23b 3977 3fc0
000001b0: 6483 01c0 602b 3040 f0b8 583f 5560 1340
000001c0: 34b1 ae3e f492 3ac0 7d80 b83f a285 17c0
000001d0: a6ce c83e af46 3a40 8a16 303f 853a 26c0
000001e0: bcff 6c3e d19a 1f40 de35 12c0 6608 2540
000001f0: 3457 9fbe c98d 3dc0 7e91 cebf e888 fe3f
00000200: daf1 ecbf 77cd 1a40 801b 15c0 f354 2a40
00000210: bb87 21bf f15c 2540 99f2 1040 ee08 25c0
00000220: f99d c43e 3594 3840 6dbb 623f 2201 2dc0
00000230: e6f6 c5bf 9672 2440 0c56 b3bf 3074 2640
00000240: 74dd 13c0 7f61 2f40 63fb 253e d149 3d40
00000250: 682a c83d 4bdb 3440 6c4c 0e40 3de4 18c0
00000260: 770c ce3e 9757 3f40 83c4 a8be 30d3 3bc0
00000270: c651 db3e 3299 3b40 34d3 86be 6e16 40c0
00000280: a931 13bf 3726 1540 fec7 afbf ddf1 8bbf
00000290: 9145 a33e 7ff2 4240 7696 86bf 52ba 2d40
000002a0: 82c1 8d3f 0d33 24c0 ee67 0fc0 6c84 2340
000002b0: 1a55 91bf 4b64 2440 796a 813f e756 99bf
000002c0: ec5c 04c0 cb57 1740 f897 8cbd 9750 2cc0
000002d0: 8867 35bf de5f 2fc0 7fd8 12c0 7b1d 3fbe
000002e0: 46a8 9abf 3b4c 2740 52b4 433e 58af 4740
000002f0: 5943 c6bf 30f0 0840 a239 923f e6a0 1cc0
00000300: 8ed4 0f40 e568 20c0 0bd9 c43e 2191 3d40
00000310: 9107 96be 1ecb 38c0 429a 78bf f73a 2d40
00000320: d591 ec3f 225f f4bf fc7d 9bbf 6656 2c40
00000330: 71ff 2fbf 34c5 3140 d928 aebd 368f 2ac0
00000340: 5ab1 95bf 0fd3 1c40 ca86 683f cfe7 34c0
00000350: c8ab 19be 05cb 40c0 a142 183e 1f98 00c0
00000360: 6adb 9e3f a27b 28c0 94f3 34be b54a 3740
00000370: e77d 2bbe 4478 3c40 3188 c6be 52df 39c0
00000380: b329 ccbd 3164 3c40 ab49 9fbf 174e 25c0
00000390: 897f e5bd cf8b 44c0 0eb6 bb3f 067c 743d
000003a0: ca13 0740 4983 34c0 0022 a1be b09c 3840
000003b0: 751e 943f 9bf2 dcbf 6622 1440 e513 35c0
000003c0: eb50 ce3f 1070 153f 71e7 93bf 407b 1c40
000003d0: af1e 4bbf fbb2 1c40 e19f 4a3e a6dd 3b40
000003e0: dc9e 87bf 0600 1f40 50e8 0fc0 8758 3440
000003f0: 3bcd ae3f a61d 0cc0 8e49 c23d f359 3b40
1.241344 -2.5140135 1.9070319 -2.6833854 0.012962204 2.1234932 -2.1588006 2.3249826
-0.8100763 -2.7413793 -0.8508627 1.7462983 -0.4877748 -2.7710805 -2.2700665 2.5200722
0.43741652 -2.7746358 1.1385806 -2.348414 1.9693888 -1.862341 2.2785308 -2.604603
-1.1112933 2.7004633 -0.4639381 3.0775063 -1.1964581 2.5060067 0.43341228 -3.0010755
-0.76483727 -2.8780487 -0.6974745 2.52296 -2.2901797 2.653621 -2.1546683 2.3934114
-0.020608747 -3.0038087 0.5018184 2.8166788 -1.8631482 2.8638656 0.98478985 -2.9593525
-0.26003253 -3.0491965 -0.6910165 2.6252308 6.720121e-05 2.774603 -1.2921789 2.5949225
0.14229076 3.079447 -0.2039153 -2.7388098 0.34270492 2.7715313 -0.4696987 3.0263612
0.9068018 -2.5733259 2.449649 -2.6910512 -0.46677428 2.5301683 -2.2549796 2.574272
0.20067213 -1.8181158 -0.9046935 2.592996 1.7836573 -2.7048585 1.2922754 -2.3963683
2.0753531 -2.1433146 1.8266659 -2.222327 2.2286398 -2.5384538 -2.0876188 2.192539
2.1711955 -2.3697264 -0.37086624 -3.0743365 0.07768643 0.8839597 -0.97376186 2.6521423
-0.12839267 3.1783855 2.0055282 -2.1440635 -2.2102566 2.4338217 -2.1988661 2.4969878
-1.9608905 1.9115379 0.0074089356 -2.9916518 -2.0236444 2.7526474 0.8465719 2.3027546
0.3411957 -2.9152193 1.4414212 -2.3675313 0.3922016 2.9105642 0.6878439 -2.5973217
0.2314443 2.4938242 -2.2845378 2.5786376 -0.31121218 -2.9617789 -1.6138151 1.988553
-1.8511307 2.4187906 -2.3298035 2.661435 -0.63097733 2.5837977 2.264807 -2.57867
0.38401774 2.8840458 0.8856724 -2.7031941 -1.5465972 2.5694938 -1.4010634 2.6008415
-2.3103914 2.7403257 0.16209178 2.9576304 0.09773713 2.8258846 2.2234144 -2.3889306
0.40243885 2.989721 -0.32962427 -2.9347649 0.42835826 2.9312253 -0.2633301 -3.001369
-0.5749765 2.3304574 -1.3732908 -1.0933186 0.31889012 3.0460508 -1.0514667 2.714497
1.1074679 -2.565616 -2.2407184 2.5549574 -1.1354096 2.5686214 1.0110618 -1.1979645
-2.0681715 2.3647335 -0.06864923 -2.6924188 -0.708611 -2.7402263 -2.2944639 -0.1866359
-1.2082603 2.6140277 0.19111755 3.1200771 -1.5489303 2.13966 1.1423838 -2.4473205
2.2473483 -2.5064023 0.3844684 2.961983 -0.29302648 -2.8873973 -0.9711038 2.706724
1.8482004 -1.9091532 -1.2147822 2.6927733 -0.6874915 2.7776613 -0.08503885 -2.664991
-1.1694748 2.450382 0.9083067 -2.8266485 -0.15006936 -3.0123913 0.14869167 -2.0092847
1.241071 -2.632546 -0.17671043 2.8639348 -0.16747247 2.9448404 -0.3877578 -2.9042554
-0.09968891 2.9436152 -1.2444357 -2.5828912 -0.11205966 -3.0710332 1.4664934 0.05968859
2.1105828 -2.820513 -0.31471252 2.8845634 1.1571795 -1.7261537 2.3145995 -2.8293393
1.6118444 0.5837412 -1.1555005 2.4450226 -0.79343694 2.448424 0.19787551 2.9354033
-1.0595355 2.4843764 -2.2485542 2.8179033 1.3656381 -2.1893096 0.09486686 2.927365

differentiable_model.linear1.bias f4 [200]
00000000: 89c4 04c0 01fa 19bf fec6 f23f e3b5 263f
00000010: 36a2 e8bf f3e3 cc3f 2233 71bf 1c46 923f
00000020: 75f9 1bc0 2324 01c0 508a 3abf bfa5 acbf
00000030: ca95 f7bf 095e cf3f c493 0240 6f59 dabf
00000040: f412 ebbf 8f97 1540 b342 9c3f 0514 913f
00000050: 7da9 18bf f0a4 6c3f bf57 42bf e36d cc3e
00000060: 6d80 80bf 0c43 bf3f b2a2 0e40 515b c73f
00000070: 0d2a a43f 427b 02c0 ca9f 903f cf0a d33f
00000080: d26b e6bf aaf0 6d3e 78a7 763f 78f1 093f
00000090: c6dc 2f40 dc28 ff3f 45b2 eebf e455 a63f
000000a0: e321 11bf 1527 98be 176f aabf d2f4 023f
000000b0: 4ede 3ebf 0a81 7dbf ea90 2340 e42b d8bf
000000c0: 1db5 a43f 314a 4bbf 6e9d 7d3f 30a7 913f
000000d0: 77fb 473f e470 4abf d192 5c3f b782 fe3e
000000e0: a7c3 dc3e 3435 0ac0 d081 a43f fba4 31c0
000000f0: 9537 843f 48f4 043e af9a 27bf 4e2f 69bd
00000100: c630 503f 0f90 8a3f 252c 16c0 ccd9 89bf
00000110: a54a 873f 2bae 343f 9785 153f ca09 a3bf
00000120: d00c 923f 4144 463f e946 f5bf ece4 78bf
00000130: 48ea 883f acc0 6cbf 1fa6 693f e288 6dbf
00000140: c397 efbf 674a 83bf 85b0 883f 43b5 11c0
00000150: 70be 23c0 a637 913f 1a3c 08c0 db64 09c0
00000160: 4004 af3f 107a e13f 53cd 0bbf 4f5f d7bf
00000170: 0484 00c0 4a55 a43f 09d1 0440 402a 24c0
00000180: 6a1c 82bf 16e7 563f 4a4e 95bf 9d96 fcbf
00000190: d94a f4be 3b96 02c0 0ccb 06c0 86ba e9bf
000001a0: 6e7b a33f d979 0940 c470 c0bf e353 cabf
000001b0: 08c1 fabf 127f 1440 97a6 983c c8c5 7ebf
000001c0: 0b0d 873e c69b 713f 9a4f afbf 66c4 0dc0
000001d0: 3c92 c0bf bae9 d43f c988 fcbf f385 ce3e
000001e0: 76db 0cc0 a5b2 1940 38dd 19c0 d49b 933f
000001f0: d523 0640 7ce5 083f 9b02 48bf 95df b43f
00000200: 2ced 21c0 578e 913e c4dd fcbf ddcb 153f
00000210: a842 b33f bbe7 113f dfd1 873f 704d 45bf
00000220: 6990 e1bf 7b54 e03f 8794 44bf 99f5 b33f
00000230: eeee 713f 3c55 873f 1b6d 0640 334e a6bf
00000240: d22f 2b40 2101 03c0 b3f3 fd3f da3a 6dbf
00000250: f67b 41be 2e2b 8ebf 2fed 2d3f d1fa 913f
00000260: b747 a4bf c22c 5ebf 39f0 0bc0 b58a 0ec0
00000270: ddad 733f ab48 b43e 8704 96bf 7eeb 3f3f
00000280: 395a f13f 397b 74bf 1f21 dd3f 7483 853f
00000290: 60ca 0040 67f7 54bf a6bd 8cbf 5923 1740
000002a0: edc0 74bf 466f 07c0 18dd 593f 484e 673f
000002b0: a46a 353f 3d5d ea3f 32f6 4fbf c584 cfbf
000002c0: b138 42bf b8ae 93bf 0b82 aa3f 5292 0ebf
000002d0: 190a 88bf f56a f73f da42 d7bf b011 acbf
000002e0: b1e3 f33e 4c4a 0b40 e1e0 94be a3e4 a33f
000002f0: 39be d13e 2502 6abf d53c 323f 7c17 8a3f
00000300: 2d4f a6bf 8179 06bf 1dc7 c2bf b357 0fc0
00000310: cca3 5ebf c41d 7b3f 0a5d aa3e dbd0 f2bf
-2.0744956 -0.601471 1.8966978 0.6512129 -1.8174503 1.6007065 -0.9421865 1.1427646
-2.4371006 -2.0178306 -0.728673 -1.3488082 -1.9342587 1.6200572 2.040269 -1.7058543
-1.8365159 2.3373754 1.2207855 1.1334234 -0.5963362 0.92439175 -0.7591514 0.39927587
-1.0039192 1.4942336 2.2286801 1.5574743 1.2825333 -2.038773 1.1298764 1.6487674
-1.8001654 0.23236337 0.9634929 0.5388408 2.74785 1.9934344 -1.8648154 1.2994962
-0.5669233 -0.29717317 -1.3315152 0.51154816 -0.7455796 -0.99025023 2.5557199 -1.6888394
1.2867771 -0.7941008 0.99068344 1.1379147 0.7811808 -0.7907851 0.86161524 0.49709103
0.4311802 -2.1594973 1.2852116 -2.7756946 1.0329462 0.12983811 -0.65470403 -0.05692988
0.8132442 1.0825213 -2.3464444 -1.0769591 1.0569655 0.7057826 0.58406967 -1.2737362
1.141016 0.774479 -1.9162265 -0.9722431 1.0696497 -0.92481494 0.91269106 -0.9278699
-1.8718189 -1.0257081 1.067887 -2.2766883 -2.5584984 1.1345108 -2.1286683 -2.1467807
1.3673172 1.7615376 -0.54610175 -1.6825961 -2.0080576 1.2838528 2.0752585 -2.5650787
-1.0164921 0.8394636 -1.1664517 -1.9733464 -0.47713354 -2.0404193 -2.106143 -1.8260047
1.2772043 2.148062 -1.5034413 -1.580685 -1.9590158 2.3202558 0.018634124 -0.9952054
0.26377138 0.94378316 -1.3696167 -2.2151122 -1.5044627 1.6633828 -1.9729244 0.4033657
-2.2008948 2.4015286 -2.4041271 1.153193 2.095937 0.53475165 -0.78128976 1.4130732
-2.5301008 0.2842891 -1.9755177 0.58514196 1.4004717 0.5699422 1.0610923 -0.77071285
-1.7622195 1.7525781 -0.76789135 1.4059325 0.945052 1.0572886 2.1004093 -1.2992615
2.6747937 -2.046944 1.9839996 -0.92667925 -0.18894944 -1.1106927 0.6794004 1.1404668
-1.2834386 -0.86787045 -2.186537 -2.227216 0.9518717 0.3521169 -1.1720132 0.7496871
1.8855659 -0.9550052 1.7275733 1.0430741 2.012352 -0.83190006 -1.0995376 2.3615324
-0.9560688 -2.1161666 0.8510299 0.9035382 0.70865846 1.8309704 -0.8123504 -1.6212393
-0.75867754 -1.1537695 1.3320936 -0.5569202 -1.0628082 1.9329516 -1.6817276 -1.3442898
0.47634652 2.1764097 -0.2907782 1.2804149 0.4096544 -0.9140952 0.6962407 1.0788417
-1.2992913 -0.5252915 -1.5217015 -2.2397277 -0.86968684 0.98092294 0.33274108 -1.8969988

differentiable_model.linear2.weight f4 [200, 200]
00000000: 1626 c13f efd8 2040 cbdf 67bf 4182 19c0
00000010: d02b 883e c074 d83e 4c1a 4d3f d53f 23c0
00000020: 590a ff3f cd5a 943f 7275 1440 01f1 2640
00000030: 4169 02c0 4914 f1bf 224b aebf 2a82 1940
00000040: cb0d df3f cb6e 91bf a76b fbbf 26a9 1dc0
00000050: 363a 0d40 380c 9ebf 4f62 2cc0 93c3 0f40
00000060: 5672 e13f 49e8 b6bd 2863 7cbf ba8e d6bf
00000070: 00fb d5bf 5b69 1b3f 35bc b5be 4ac5 15c0
00000080: 2a7e cf3e 0154 1c40 63d5 6abd 140c 05c0
00000090: 5a91 b33e 898e 30bf 38d8 0740 cb84 0340
000000a0: d7c1 2340 e7ce 1340 427f 2940 9379 23c0
000000b0: 6174 2840 9931 7a3f 76bb 07c0 33be d1bf
000000c0: a22b bebf cbce 1b40 775d 27c0 0244 29c0
000000d0: f298 21c0 3949 0140 d052 e9bf 59f1 a4bf
000000e0: a7b8 2840 72af d53f ff5a cabe 5fdc 0740
000000f0: 201e d7bf 3614 0dc0 7012 0840 1900 d0bf
00000100: 504a 59bf b9be 35c0 348a afbf 01c6 2b40
00000110: 000c 4ebf bf34 d83f ea46 15c0 5a9d 08c0
00000120: 3966 26c0 651e 12c0 8128 bdbf 6c1e 2840
00000130: 5b85 ffbe b208 d93f 09ec 99bf c282 f23f
00000140: f2e6 873d e17e a6bf 4d2c 83bf d61c 0ac0
00000150: 6cd9 0040 265b 2ac0 8874 f5bf e78e 123f
00000160: 4f87 f6bf c923 ab3f 9d36 0abe 4666 1bbf
00000170: c76c f3bf c41c 3fbf fc33 10c0 ab8a 1140
00000180: 795a 2540 ec09 b8bf 12ef 0c3f 933c 0bc0
00000190: 659d 1b40 d4a1 0bc0 16f5 f0bf ec59 80bd
000001a0: babc 0fc0 3fbd 0140 5fbc d43f 8321 693f
000001b0: 1fb3 0b40 29cc f9bf 5fb6 1bc0 21dc bd3f
000001c0: 3316 1cc0 5563 6c3f 39ea b83f 8c69 2d3f
000001d0: 002d 2a40 27f3 16c0 e15b 8a3f b341 3440
000001e0: c999 403f 03c5 d9bf 2492 c0bf 3686 a6bf
000001f0: dfeb 70bf 6d82 ffbf 1826 e03f 2b4e c4bf
00000200: 8d22 ec3f 05e8 8b3f f789 f2bf b24d 21c0
00000210: c89a dcbf 556d 1540 c8fb 3cbf 2595 2fc0
00000220: 0b97 e23f 541f cebf 6e9f 2740 bed8 1bc0
00000230: 6f45 a3bf ffb8 04c0 5735 863f e733 3340
00000240: 8331 093f eab5 e8bf 0edf 0640 b39c a03f
00000250: 6c29 19c0 30de 863f 6138 833f 9528 87be
00000260: 90f3 5e3d 1374 1e40 4a8d 31be 1e72 f3be
00000270: 30f2 16c0 fd59 1cc0 2fde 393f 7c37 ffbf
00000280: 5d9f 0740 2904 3340 4609 dc3f 72eb 2dc0
00000290: b47c 0d40 f8fa 4dbf 1099 1740 d326 19c0
000002a0: 21d7 673f 88c0 a83e 8342 f8bf c01f 2cc0
000002b0: b0a5 17c0 ba67 0c40 e0a4 bf3f 82f2 b63c
000002c0: 904b 3540 88b8 1a40 e14b 1ac0 b852 0bbd
000002d0: 2859 3540 dd0e 0d40 1ee0 30bf 8810 f73f
000002e0: a92e 3a40 99f2 80bf 9232 30c0 69a9 1ac0
000002f0: 727b dcbf 6ccb 813f 1f69 18c0 8253 173f
00000300: bb1e 1d40 2aac 90bf 4dde cdbf 6580 b53f
00000310: 5aad 1f40 de9e 63be dedb a7bf 1390 e0bf
00000320: 34a4 e43f c70b e53f 051e 11c0 5131 d4bf
00000330: ef38 b73e e2d7 df3d 1a78 3040 d978 c3bf
00000340: 14a6 e13f 5c02 523f 660b cb3f 1abb e83f
00000350: d328 983d 5ff4 fabf 351e edbf 0c69 ad3f
00000360: ef93 dd3f 7e7e 5abf 162b ecbf d91a 9dbf
00000370: c98e b33f 2100 2dc0 00d1 edbf ea3e 3340
00000380: e117 2940 f3bd afbf 3929 9fbf af11 1dc0
00000390: d1a3 28c0 b27e 2a3f 961f 17c0 3727 b0bf
000003a0: f702 b63f d289 3040 8155 91bf f978 1ec0
000003b0: b6a0 3b3f 6903 dbbf f58e 2740 bb89 2ebf
000003c0: 9159 ad3f 3d60 e73f 5665 dc3f 77e7 bcbf
000003d0: dabc db3f 8e11 2e40 560c 29bf 6a24 c4bf
000003e0: 54ef eebf 8265 e83f 3635 a7bf 1fea e5bf
000003f0: b94b ccbf 1e06 2c40 c49b 24c0 24c6 203f
1.5089748 2.5132406 -0.90575856 -2.398575 0.26595926 0.42276573 0.8011825 -2.550771
1.9925033 1.159021 2.3196683 2.6084597 -2.0376742 -1.8834316 -1.3616679 2.3985696
1.7426084 -1.1361936 -1.9642228 -2.463449 2.206678 -1.2347479 -2.6935003 2.246312
1.7613018 -0.08931024 -0.985888 -1.6762307 -1.6717224 0.60707635 -0.35495153 -2.3401666
0.40525943 2.4426272 -0.057332408 -2.0788622 0.35071832 -0.6896749 2.122572 2.05498
2.558706 2.3095033 2.6483922 -2.5542953 2.6321032 0.9773193 -2.1208167 -1.6386169
-1.4857066 2.4344966 -2.6150796 -2.6447759 -2.52496 2.0200942 -1.8228397 -1.2886153
2.6362703 1.6694167 -0.3952255 2.1228254 -1.6806068 -2.2043586 2.1261253 -1.625003
-0.84879017 -2.8397658 -1.3714051 2.6839602 -0.8048706 1.6891097 -2.3324533 -2.134604
-2.5999892 -2.2831051 -1.4777986 2.6268568 -0.4990643 1.6955779 -1.2025157 1.8946154
0.06635846 -1.300747 -1.0247895 -2.15801 2.0132704 -2.6618133 -1.9176188 0.572493
-1.9260043 1.3370296 -0.13497396 -0.6070293 -1.9017571 -0.7465327 -2.2531729 2.2740886
2.583647 -1.4378028 0.5505229 -2.1755722 2.4314816 -2.1817522 -1.8824794 -0.06267151
-2.245894 2.0271757 1.6619986 0.9106676 2.1828077 -1.951543 -2.433006 1.4832803
-2.438855 0.9233907 1.4446479 0.67739177 2.6589966 -2.3585908 1.0809289 2.81651
0.7523466 -1.7013248 -1.5044599 -1.3009708 -0.9410991 -1.9961678 1.7511625 -1.5336355
1.8448044 1.0930182 -1.8948354 -2.5203671 -1.7234735 2.334798 -0.7382169 -2.743478
1.7702345 -1.610331 2.6191058 -2.435104 -1.2755564 -2.0737913 1.0485028 2.8000429
0.53591174 -1.8180516 2.1073642 1.2547821 -2.3931532 1.0536556 1.025158 -0.2639815
0.054431498 2.4758346 -0.17339054 -0.47548002 -2.358532 -2.4429924 0.7260465 -1.9938807
2.1191018 2.797129 1.719033 -2.7174954 2.2107363 -0.8046107 2.3687172 -2.3929946
0.90562636 0.3295939 -1.9395298 -2.6894379 -2.3694878 2.193831 1.4972191 0.022332434
2.832737 2.417513 -2.4108813 -0.034014434 2.8335667 2.2040322 -0.69091976 1.930192
2.909098 -1.0074035 -2.7530866 -2.41659 -1.7225173 1.0140204 -2.381416 0.591118
2.4550006 -1.130254 -1.6083466 1.4179808 2.4949555 -0.22228572 -1.3113973 -1.7543968
1.7862611 1.7894219 -2.2674572 -1.657755 0.35785624 0.10929848 2.7573304 -1.5271255
1.7628808 0.8203485 1.5862854 1.8182099 0.074296616 -1.9605826 -1.8524843 1.3547683
1.7310771 -0.8534926 -1.8450649 -1.2273818 1.402795 -2.7031329 -1.8579407 2.800715
2.6420825 -1.3729843 -1.2434455 -2.4542043 -2.6349986 0.6659957 -2.3613029 -1.3761967
1.4219655 2.758412 -1.1354219 -2.4761336 0.732921 -1.7110416 2.6181004 -0.6817891
1.3542958 1.8076245 1.7218425 -1.4758137 1.7167008 2.7198215 -0.6603445 -1.5323613
-1.8666787 1.8155978 -1.3063114 -1.7962073 -1.5960609 2.6878734 -2.5720072 0.6280234

differentiable_model.linear2.bias f4 [200]
00000000: 3120 17c0 bf79 0240 8fe9 0740 16a7 bdbf
00000010: 8776 a1bf 6c76 0040 7be7 e93f 4e46 ed3f
00000020: e621 87be 5b56 0ac0 b026 0540 d9d1 0040
00000030: 1df2 0c40 baa2 c2bf 0693 01c0 5440 dabf
00000040: 9b7f 1bc0 232d 1340 d5c0 eebf 3d3e 1240
00000050: fbe2 10c0 95ee 02c0 f895 0bc0 97a2 1640
00000060: cac4 0f40 8f76 2a40 ef8c 083e d34c cc3f
00000070: b8ac 15c0 f13d f0bf 5abc 22c0 9b08 2ac0
00000080: fcef fa3f 2ebd 0dc0 9dd1 1d40 bf83 1b40
00000090: 227b 9a3f bcc5 2640 b178 07c0 d435 f93f
000000a0: e746 d43f fa37 b7bf f778 0ec0 44e9 2240
000000b0: 717b f93f 6dd9 fabf 66b4 0c40 e4e6 f23f
000000c0: c4e9 ffbf 249b 1ec0 ed92 0640 4221 1dc0
000000d0: 03c9 1940 7c2b fabf f464 ddbf 9ba2 55bf
000000e0: 434e 0cc0 4870 b5bf 1975 04c0 e06e f7bf
000000f0: b80b 0ec0 4f92 573f 77fa ffbf 268d f53f
00000100: 41d5 19c0 0057 0ec0 bc89 e9bf af99 0940
00000110: 2759 1140 226a e33f a30d 183e aa81 c8bf
00000120: 77d0 0540 789e 03c0 0bee 3f3f d4d0 1cc0
00000130: 61d1 a2bf b69e 0340 5133 05c0 a7ce 19c0
00000140: 214d 18c0 8e15 64bf 8183 eb3f 5194 c0bf
00000150: d1a9 8cbf e053 f1be 73d4 bc3d feb1 0e40
00000160: 739f c33f 45ed 37bf b1a4 ba3f a489 12c0
00000170: fce0 0f40 40c2 2740 5972 08c0 2c99 0740
00000180: a06c 12c0 21eb 553e 5949 dd3f 431b 0940
00000190: d5f6 1ec0 3744 09c0 4263 ddbf 8481 fdbf
000001a0: 3640 de3f 73c0 0840 7cb8 d3be 65ea c23f
000001b0: 51a5 f43f cb59 1440 11dd 18c0 f2ad 0940
000001c0: e6c6 20bf 6be7 f9bf 5ccb ecbf 736c a73f
000001d0: 63d7 1c40 e499 07c0 f4ec f0bf 2b43 21c0
000001e0: f237 98bf e942 07c0 ee3e d8bf d76b c7bf
000001f0: 4e3d 2dbf 88d9 1540 d993 11c0 d614 03c0
00000200: 5fb4 1340 3b82 0b40 e0c7 e93f 8e80 0b40
00000210: d416 16c0 ca6b dcbe 3eaa ca3f 20f4 1840
00000220: 03af c73f 0704 16c0 dbe9 1040 ec11 e3bf
00000230: 72a4 0740 8098 1640 3370 10c0 b433 10c0
00000240: b71d 0b40 56c1 0c40 f1ce 17c0 004e de3f
00000250: f8f3 933f 3e51 ef3f c3f4 03c0 c811 c33f
00000260: 297a 113f b4c0 f53f 0ca7 1bc0 cc0d 07c0
00000270: cdf1 aa3f e5f7 d83f cbd7 03c0 7f67 f23f
00000280: 7d54 f23f 4698 0140 c626 93bf 4acc fcbf
00000290: 4fc1 01c0 391e 0dc0 bf72 57be 69c9 86bf
000002a0: 135c aa3f 81a4 cf3f 4722 b13f 93ae 0440
000002b0: 68a3 fe3f 09df 0ac0 f9e2 d43f e293 bb3f
000002c0: 4c67 d1bf b93f efbf a24d 15bf 15ee 8dbf
000002d0: 193f 603e 00d0 74bf 0007 0b40 c605 1a40
000002e0: 4faf 33bf 3e0d b6bf b95c 1640 1bf3 0240
000002f0: b0bf 973f 816f fcbf 73d8 1cc0 b3be 03c0
00000300: 1a9c cd3f 0b19 e9bf f878 20c0 0b88 0a40
00000310: 36e9 0140 8620 2f40 b267 ad3f 8dd7 1dc0
-2.3613398 2.0386808 2.1236303 -1.4816616 -1.2614297 2.007228 1.8273767 1.853708
-0.2639305 -2.1615207 2.0804863 2.012808 2.2022774 -1.520591 -2.0245986 -1.7050881
-2.4296634 2.29963 -1.8652598 2.2850487 -2.2638538 -2.045812 -2.1810284 2.3536737
2.246386 2.6634862 0.13335012 1.5960945 -2.338667 -1.8768903 -2.542746 -2.6567752
1.9604487 -2.2146716 2.4659188 2.4299161 1.2068827 2.6058187 -2.1167414 1.9469552
1.6584138 -1.4313958 -2.226133 2.5454874 1.9490796 -1.9597603 2.1985106 1.8976712
-1.9993215 -2.478219 2.1027176 -2.455155 2.4028938 -1.954452 -1.7296433 -0.8345124
-2.1922767 -1.417489 -2.069647 -1.9330711 -2.2194653 0.84207624 -1.9998311 1.91837
-2.403641 -2.22406 -1.8245158 2.150005 2.2710664 1.7766764 0.14848952 -1.566457
2.0908487 -2.0565472 0.749726 -2.4502459 -1.2720147 2.056562 -2.081257 -2.403238
-2.3797076 -0.8909539 1.8399507 -1.5045263 -1.0989324 -0.47134304 0.09220209 2.2296138
1.5283035 -0.7184642 1.458151 -2.289651 2.248107 2.621231 -2.1319792 2.1187239
-2.28788 0.20890476 1.7288009 2.142289 -2.4838154 -2.1447885 -1.7295916 -1.980515
1.7363346 2.1367462 -0.41351688 1.5227782 1.911295 2.3179805 -2.3884928 2.1512418
-0.62803495 -1.9523748 -1.849956 1.3079971 2.4506462 -2.1187677 -1.8822312 -2.5197246
-1.1892073 -2.1134589 -1.6894205 -1.5579785 -0.6767167 2.341402 -2.274649 -2.0481467
2.307884 2.1798236 1.8264122 2.1797214 -2.3451433 -0.43050987 1.5833204 2.3899002
1.5600284 -2.3439958 2.2642734 -1.7739844 2.119412 2.3530579 -2.256848 -2.2531557
2.1736887 2.1993003 -2.3720057 1.7367554 1.1558828 1.8696668 -2.061814 1.5239801
0.56827027 1.9199433 -2.4320707 -2.110217 1.3355042 1.6950651 -2.060046 1.8937835
1.8932034 2.024919 -1.1496208 -1.9749844 -2.0274236 -2.2049696 -0.21039866 -1.0530216
1.3309349 1.6222078 1.3838586 2.0731552 1.9893618 -2.169863 1.6631767 1.4654505
-1.6359649 -1.8691322 -0.58321583 -1.1088282 0.2189907 -0.9562988 2.1723022 2.4066024
-0.70189375 -1.4222791 2.3494093 2.046088 1.1855373 -1.9721528 -2.450711 -2.0585144
1.6063263 -1.8210768 -2.5073833 2.1645534 2.029859 2.73636 1.354727 -2.4662812

differentiable_model.linear3.weight f4 [2, 200]
00000000: eac6 f7be ec8f 97be 3491 d2bd f357 60be
00000010: 838e 2fbe 3344 05bf e999 1d3f d1fd 003e
00000020: 7ea7 b83e 61af da3c 2f60 7c3e bde6 5dbe
00000030: 8704 25bd 1eba 3e3d bbb9 353e e608 c6be
00000040: 3c7d 3d3e e4f7 5a3d 9c01 543f 58b7 1c3e
00000050: 082f 203e e473 8a3e 79c3 ecbd b769 bf3e
00000060: 7b4f cbbe 6ac6 b2be 585a c7be 44b8 9d3d
00000070: 0bfe d3bd 6518 c53e 2f4c 63be 3cdc b03e
00000080: 7c8c 1bbe 9684 acbd 7d7d 9b3e fb27 863d
00000090: 6aea 03bf 3cd6 9cba 1887 233e f485 853e
000000a0: 370a 5abe 0958 6f3d 52af 8ebe 8a10 eebe
000000b0: 5c91 4ebe d3c1 933e dd89 2fbe c93b 61be
000000c0: 6f0b abbe 638a 60be 460a 0f3f 4881 e2bb
000000d0: 4f19 aa3e 2412 a3be 2590 e93e 6831 283e
000000e0: 3861 f5be c20e 8d3d 34e5 a23e 1b87 ea3d
000000f0: 91ba f73e c606 b63e 3be1 f03e af20 8dbe
00000100: daa1 e9bd edf5 aa3d 35ba cebd 946b 0b3e
00000110: 5128 c23e ab9c e4be cc99 203e a5dc 083d
00000120: aa20 7cbe 7c00 aebc 3714 67be de6d 283f
00000130: 7932 25be e64e 00be f46c 913d dedb 5b3d
00000140: 285b 42bf 2eb6 333e a6e4 e7be 8490 1fbc
00000150: 9a0b 2dbe 9b5f f4be 1aa3 5bbe 6754 98bf
00000160: fb6e fabc e3fd 923e 4e9b a2be 7456 d8be
00000170: de8f 50bf 4020 8d3e 4ebd a4be c3bb af3d
00000180: 58cc 283e 6ee1 083f 6e92 01bf 6ee8 4e3e
00000190: 2828 a1be e55a 873e fc5a 18be 7ee8 533e
000001a0: b713 b2be da49 3cbf 4986 e63d 3703 bfbd
000001b0: d0c5 30be 2705 613e 8830 0cbe 18b6 d1be
000001c0: 4528 aabe d94e be3e 126c 2bbe 1cfd f6bc
000001d0: e3a5 913e 1023 07bf cf87 093f 2520 073e
000001e0: 4767 cd3e 079a 513f b7d8 3b3f bf15 78be
000001f0: 1eb2 27be 75d7 533e e625 ed3d 7b6b 8b3e
00000200: add8 1c3f 83f5 c83e c3c2 5f3f d377 33be
00000210: dc0a b4be 13bd 75be f3d6 89be 226f 0abf
00000220: 28cb 38bf a4a8 bcbe fb45 01bf 1960 0dbe
00000230: ce3b c23e 7cd2 823d 330a 20be b562 94bd
00000240: f5f4 a5be 50fe f8bc 7b19 983d d0b6 393e
00000250: 3ce2 953e fb89 cc3e 4321 ecbe 4625 4c3e
00000260: ba4f 923e dc78 84be d0f6 71bd e237 573e
00000270: bb36 62bf ba9c 923e 53d5 913e 99c6 9c3e
00000280: e7ab c23e b8f8 2abe c246 dabc 0fc9 063e
00000290: f50f 063e 8f10 063f 91ee 423e bb6b 9d3d
000002a0: 57f3 223e 60c3 613e c60c 69be 3751 25bb
000002b0: 9759 14bd cc36 b03e d576 98bd a9e8 b63e
000002c0: 3f67 5a3e 32c4 cabd b4db d23e 8967 033f
000002d0: 634f bd3e 30d7 92be bbf3 873e 0bd6 94be
000002e0: 4a80 3b3e 5ff6 b93e 04fb 99bc bbd9 f5be
000002f0: ecb2 163e df36 573e 84ce 58bb ef68 07bf
00000300: 2df7 643e 6814 a23e 2097 e1be 0c4b 2bbe
00000310: a0f7 5bbe b983 233e 083a 26be 10d2 a9bc
00000320: eae2 893e 922b e03e bfb1 c13e 8d0f 1f3f
00000330: 6632 c2be 598a e53e 480d 00bf 3133 4e3e
00000340: b873 bc39 fa7f 87bc 4618 09be 4c2d 143f
00000350: 4110 b33e 7dd8 0cbe 6b60 34be 9737 713f
00000360: 0c76 e7be 2fec 573e b440 203e 8806 c3be
00000370: 3ca2 343e 5942 75bf 12ed 88be fa49 59bc
00000380: 83e3 0cbe 5129 cf3d 3767 b53d 267f a8be
00000390: 2efc a53b 2f4b 783e 4ba3 8dbe ade7 6ebf
000003a0: 6d17 f03e c5dd 9b3d 1d38 7b3e 3234 c0be
000003b0: 1326 0b3e 4f11 34be 5898 91bd 269c b2be
000003c0: f5f6 d43e 72bd 95be 3188 c73d be7d 823e
000003d0: e7c2 9b3e fbbc 10bf 9132 bebe 18d9 783e
000003e0: be28 6cbd 787d 20be 8fef 7abe e9cb f5be
000003f0: dfae 4d3e 22db ebbc 51e2 c7bd 166b b5be
-0.48393947 -0.2960199 -0.102816015 -0.2190855 -0.17144208 -0.5205719 0.61562973 0.12596823
0.36065286 0.026694955 0.24646066 -0.21670051 -0.04028752 0.046564214 0.17746632 -0.38678664
0.18504804 0.053459063 0.82814956 0.15304315 0.15642941 0.27041543 -0.11560721 0.37385342
-0.39709076 -0.34917003 -0.38936114 0.077011615 -0.10351189 0.38495174 -0.2219703 0.34543025
-0.1519031 -0.08423726 0.30369177 0.065505944 -0.5152956 -0.0011965702 0.15969503 0.2607876
-0.21292959 0.058433566 -0.27868134 -0.46496993 -0.20172638 0.28858814 -0.17142434 -0.21995462
-0.3340716 -0.2192779 0.5587505 -0.006912384 0.33222434 -0.31849778 0.45617786 0.16425097
-0.47925735 0.068875805 0.31815493 0.114515506 0.48384526 0.35552043 0.47046837 -0.27563998
-0.11407824 0.08347688 -0.1009411 0.13615257 0.37921384 -0.44650778 0.15683669 0.033413548
-0.24621835 -0.021240465 -0.22566305 0.65792644 -0.16132535 -0.12530097 0.07100859 0.05367648
-0.75920343 0.17549965 -0.45291632 -0.009739045 -0.16898957 -0.4772919 -0.21448937 -1.1900758
-0.030570498 0.28709325 -0.31759113 -0.42253458 -0.81469524 0.27563667 -0.32175678 0.085807346
0.16484201 0.5346898 -0.5061406 0.20205852 -0.3147595 0.26436535 -0.14878458 0.20694157
-0.34780666 -0.7355019 0.112560816 -0.09326785 -0.1726296 0.21974622 -0.13690388 -0.4095924
-0.33233848 0.3716953 -0.16740444 -0.030149989 0.28446874 -0.52787876 0.5372285 0.13195856
0.40117857 0.8187565 0.73377556 -0.24227045 -0.1637654 0.20687659 0.11579494 0.2723044
0.6126812 0.3924981 0.8740656 -0.17526178 -0.35164535 -0.23997907 -0.26921806 -0.54075825
-0.7218499 -0.36847413 -0.50497407 -0.1380619 0.37936252 0.06387803 -0.1562889 -0.07245389
-0.3241345 -0.030394703 0.07426735 0.18136144 0.29274166 0.3994902 -0.46119127 0.19936094
0.28576452 -0.25873458 -0.05907327 0.21017411 -0.8836476 0.28635198 0.28483066 0.30620268
0.38021776 -0.16696441 -0.026645068 0.13162635 0.13092025 0.52369016 0.19036318 0.076865636
0.1591314 0.22047186 -0.22758779 -0.002522541 -0.036218252 0.34416807 -0.074445404 0.3572438
0.21328448 -0.099007025 0.41183245 0.5132986 0.3697463 -0.286798 0.2655314 -0.29069552
0.18310657 0.3632078 -0.018796451 -0.48017678 0.14716691 0.21017025 -0.0033082077 -0.5289449
0.22359915 0.31656194 -0.44060612 -0.16727847 -0.2148118 0.15968217 -0.16233075 -0.020730048
0.26930934 0.43783242 0.37830922 0.62133104 -0.37929076 0.44832113 -0.50020266 0.20136715
0.00035944371 -0.016540516 -0.13388166 0.5788162 0.34973338 -0.13754459 -0.17614906 0.9422545
-0.4520725 0.2108619 0.15649682 -0.3809092 0.17640013 -0.95804363 -0.2674337 -0.013262266
-0.13758664 0.10115302 0.08857577 -0.32909507 0.0050654626 0.2424743 -0.27663645 -0.9332226
0.46892872 0.076106586 0.24533124 -0.37539822 0.13588743 -0.17584728 -0.071091354 -0.34884757
0.41594663 -0.29246098 0.09742773 0.2548656 0.30422136 -0.5653836 -0.37147954 0.24301565
-0.057656042 -0.15672863 -0.24505447 -0.48007134 0.2008624 -0.028791014 -0.09759963 -0.35433263
