D-HNN/lightning_logs/version_0/checkpoints/epoch=23-step=24.ckpt (torch, 203518 bytes, 12 tensors)

model.vf.vf.vf.0.weight f4 [400, 20]
000000 ee 85 30 be 69 54 35 3d b1 18 bc bd 82 dc 38 be
       -0.1723859 0.044269953 -0.09184397 -0.18052867
000010 e8 cc 12 3e 3c fa c4 bd 99 f8 6c 3d 0b e4 0d 3e
       0.14335978 -0.09618041 0.05785427 0.13856523
000020 4d dd af bd 8a f8 68 be 89 26 20 be 4f 45 0a be
       -0.08587132 -0.2275106 -0.156397 -0.13503002
000030 50 7d a5 bd 5c 06 32 3d c1 36 79 3e 21 ef a8 bd
       -0.08080542 0.043463096 0.24337293 -0.08248735
000040 64 cb 55 3e 7c ae 7c bb 11 de 21 be 1b a0 74 be
       0.20878369 -0.003855615 -0.15807368 -0.238892
000050 d8 a4 3b 3e db b7 9a 3d bc 71 89 bd d0 16 84 3e
       0.18324602 0.07554599 -0.06711146 0.25798655
000060 f9 f3 2b 3e c5 b4 a4 39 2a 15 16 3e 4a 00 2e bd
       0.16792287 0.000314152 0.14656511 -0.042480744
000070 04 c5 a0 bc 42 40 90 3d aa b6 3c be 53 78 62 3e
       -0.019625194 0.07043506 -0.18429056 0.22116213
000080 58 ae 8c bc f6 5f 8a be 86 3f ff 3d 70 09 6f 3c
       -0.017172977 -0.27026337 0.12463288 0.014589652
000090 97 cf f6 3d aa c2 8a bd c4 91 0a bd 44 6a 1d be
       0.12051313 -0.067754105 -0.03383042 -0.15372568
0000a0 e0 01 36 be 45 c8 ef bc 93 05 7b bd 9a 0f 09 be
       -0.17774153 -0.0292703 -0.061284613 -0.13384858
0000b0 b0 ee 29 be 7b f3 2c be 55 7b cb 3d a0 17 ba 3c
       -0.16594958 -0.16889755 0.09935633 0.022716343
0000c0 e4 33 f0 bc 74 04 57 be 6f 4d 69 bc 04 86 12 3d
       -0.029321618 -0.20997792 -0.014239653 0.03577234
0000d0 b2 cf 2e bc d8 b4 6a 3d 04 5f 07 3e 2a 5e a6 3c
       -0.010669636 0.057301372 0.1321984 0.020308573
0000e0 f1 d4 26 3e 36 23 9c 3d 40 b3 19 be cc 2a 2f bd
       0.16292168 0.076239035 -0.15009785 -0.042765424
0000f0 e9 db 20 3d 43 9b 89 bd 7b e6 d8 bd 6c d8 78 3c
       0.039272223 -0.06719067 -0.10590836 0.015188318
000100 34 c4 9d bd c1 12 83 be 73 ea 83 bd ec 08 33 3e
       -0.077034384 -0.25600246 -0.06441202 0.17483872
000110 b0 96 78 be 58 f1 81 3d 65 84 fe 3d 5d a1 ed 3d
       -0.24276233 0.06344861 0.12427596 0.11603043
000120 08 8c 4a 3e f9 ed 2b 3e cc 15 04 3e 7d d1 14 3e
       0.1977998 0.16789998 0.1289894 0.14533038
000130 fa ae c8 bd 9c 37 70 be 10 08 b6 bd 4d 3c df bd
       -0.09798999 -0.23458713 -0.088882565 -0.10900173
000140 7d 11 26 be 74 e0 82 bd b4 6b 12 3e e7 37 99 bc
       -0.16217609 -0.06390467 0.14298898 -0.018703414
000150 3a ee 89 3c 2f 05 1a 3e ae d8 1e 3e 12 dc 22 be
       0.016837228 0.1504104 0.15512344 -0.15904263
000160 7a 3a 16 3d 8b bf 0a be 81 95 da bd af 90 17 3e
       0.03667686 -0.1354963 -0.10673047 0.14801286
000170 24 ba 4c be 13 3c 43 be 62 ec c6 bd 55 61 06 be
       -0.19992882 -0.19065885 -0.09713055 -0.13123067
000180 af 50 6c 3e 9f 4b 5c 3e 28 48 29 bd c2 85 98 bd
       0.23077653 0.21513222 -0.04132858 -0.07447387
000190 7f 07 8e bd 18 60 da 3d e5 40 81 3e 85 8d ff 3d
       -0.069350235 0.1066286 0.25244823 0.124781646
0001a0 f4 26 5a 3e c6 f2 19 3e 58 9e 3b be 8b ef 8b bc
       0.21303922 0.15034017 -0.18322122 -0.017081996
0001b0 61 41 b7 3d 31 56 a0 3d 96 5b d5 bc 84 ea 48 be
       0.08948017 0.0782894 -0.026044648 -0.1962071
0001c0 10 0b f7 3d a0 32 ed 3b 60 e8 26 3d 2e b7 3c be
       0.12062657 0.007238701 0.040748954 -0.18429253
0001d0 d5 be a3 bc 0b 6c d3 3d 88 56 9f bd fa 34 49 be
       -0.019988457 0.10323342 -0.077801764 -0.19649115
0001e0 2a 07 7e 3e a7 57 2a 3d ec 28 72 3c d4 b2 26 be
       0.2480742 0.041587498 0.014780264 -0.16279155
0001f0 20 6b a1 3d f3 de 3f bd 73 d5 43 be 5a 78 06 3e
       0.078817606 -0.04684348 -0.19124393 0.13131848
000200 17 63 f0 bc 5d d8 18 be 7e e2 df bb 86 fe 28 3e
       -0.029344125 -0.14926286 -0.00683242 0.16503343
000210 48 e0 ce bc cd ee a8 3d ee 5b b0 bd 46 75 81 3e
       -0.02525343 0.08248673 -0.08611284 0.25284785
000220 72 21 6f 3e 99 46 28 be c4 d5 31 3e e7 be 51 be
       0.23352602 -0.16433181 0.17366701 -0.2048298
000230 d3 d6 8c bc 14 59 8e 3d 41 86 1a be fb a8 26 3e
       -0.01719228 0.06950584 -0.15090276 0.16275398
000240 4a c9 f4 3d b1 66 13 3e 36 b0 aa 3c 5e 2b 6a 3e
       0.11952455 0.14394642 0.020835977 0.22868106
000250 9a aa 53 3d 48 59 48 3e 4c 41 36 be ff 2e 54 3d
       0.05167637 0.19565308 -0.17798346 0.05180263
000260 c1 50 2c 3e 00 7d 97 3c e5 e0 38 3e 50 de 09 3e
       0.1682768 0.018492222 0.1805454 0.13463712
000270 10 ef 0c 3e b6 f8 ca bd 75 b8 47 3e 0f 6f 32 be
       0.1376307 -0.09910719 0.19503959 -0.17425178
000280 19 ef 47 be f9 77 9e 3d d3 47 d2 bd ad 13 95 3d
       -0.19524802 0.07737727 -0.10267606 0.072791435
000290 b6 ef 1f 3e af 19 da bd b3 bc 0c bd e1 eb 0a 3d
       0.15618786 -0.1064943 -0.034359645 0.033916358
0002a0 b9 24 bd bd c2 14 73 3c c8 02 97 3c 54 59 38 be
       -0.0923552 0.014836492 0.018433943 -0.18002826
0002b0 e3 b1 87 bc f2 57 ba bb 33 c6 1b 3e a0 6a 87 be
       -0.016564315 -0.0056867534 0.15212326 -0.26448536
0002c0 f3 84 8f bd a9 d8 62 3e 35 74 31 3e 4b 39 25 3e
       -0.0700778 0.22152962 0.17329486 0.16135137
0002d0 7d a1 e1 3d e2 41 3e 3e 2e 4e eb 3c 92 22 28 3e
       0.110171296 0.1857982 0.028723802 0.16419438
0002e0 24 ba 3c 3e fb 86 31 bd 54 4b 39 3c 70 9b 18 3d
       0.18430382 -0.043341618 0.0113094635 0.03725761
0002f0 3e 52 ac 3d f3 28 16 3e 9c 28 59 3e 00 bb 50 3e
       0.08414124 0.14664058 0.21206897 0.20383835
000300 d9 53 02 be be 75 f9 3d 26 3a 80 3d 1c c6 b1 3d
       -0.12727298 0.12180661 0.06261091 0.086803645
000310 10 7e fb bd 73 26 64 3e b4 ba b8 3c 92 ba e6 bd
       -0.12279904 0.22280292 0.022549964 -0.11266054
000320 6e 3b f9 3d 82 05 8d bd 06 43 a1 bc 2d e1 44 3e
       0.121695384 -0.06885816 -0.01968528 0.19226523
000330 2b 0d 83 3e 4e d5 a7 3e b9 ad 94 bd cd 19 2c bd
       0.25595984 0.32779926 -0.072596975 -0.042016793
000340 86 f3 bd 3c 81 50 95 3d 89 ab 35 bd f1 0f e2 bd
       0.02318741 0.072907455 -0.04435304 -0.11038197
000350 d6 c3 40 3c 3f 99 26 be ec 85 d7 bd 38 77 70 be
       0.011765441 -0.16269396 -0.105235904 -0.23482978
000360 38 b3 33 bc 9d 78 05 3e 9e 1e 5e be b7 30 fc 3d
       -0.010968022 0.13034292 -0.21691367 0.12313979
000370 a0 9e 22 3e 70 dd 67 be 82 db 68 3c 6d 82 53 be
       0.15880823 -0.22643065 0.014212491 -0.20655222
000380 3c c5 3b be 5b a5 28 be ad ad 2c be 2f ab ab 3d
       -0.18336958 -0.16469328 -0.16863127 0.0838226
000390 9b 56 c8 bc a6 2c 72 be f0 43 d6 3d 82 91 81 be
       -0.02445536 -0.23649845 0.10462177 -0.25306326
0003a0 8b 16 be 3d b1 d9 78 bc 16 d5 ef bd 34 32 66 be
       0.092816435 -0.01518862 -0.11710565 -0.22480088
0003b0 1b 82 09 3d f6 2e 27 3e 40 cf 02 3d 62 0a 67 3e
       0.033571344 0.16326508 0.03193593 0.22562554
0003c0 ba 8a 04 be 4b 02 9d bd 94 65 e9 bd 91 3d 01 3e
       -0.12943545 -0.07666453 -0.113963276 0.12621142
0003d0 a7 24 9b bd 73 b8 c1 3d 3c 7e a1 be 5a 2c 81 be
       -0.0757535 0.09459009 -0.31541622 -0.2522915
0003e0 b9 55 62 3e 25 06 ad 3d 91 e1 83 3c 26 10 32 3e
       0.22103013 0.084484376 0.01609877 0.17388973
0003f0 f8 e3 89 3d dd eb 4a 3d da 43 69 3d 21 e7 16 3c
       0.06732935 0.049541343 0.056949474 0.009210379

model.vf.vf.vf.0.bias f4 [400]
000000 db 04 16 3e 25 b7 12 be ea ba 79 bc 2c b2 b5 bc
       0.1465029 -0.14327677 -0.015242318 -0.022179686
000010 d4 d1 7f bd 9d ee 3a bd 4b 5a 33 3e c4 fc dc bd
       -0.062455967 -0.045637716 0.17514913 -0.10790399
000020 9e ce 39 3e 0d b2 cd 3d 5e 44 2e be bb 92 8c 3d
       0.18145224 0.10043726 -0.17018268 0.06863924
000030 1d 1e 8c bd 38 e8 01 be 11 51 bf 3d 1e 18 01 3a
       -0.06841681 -0.1268624 0.09341634 0.0004924553
000040 9e 45 84 bd 9d 26 4d 3e 1a 7e 98 bd 62 f5 7b be
       -0.06458591 0.20034261 -0.07445927 -0.24605325
000050 ce 5b cb bd 65 d8 4e 3d c3 77 88 bd 11 89 fc 3d
       -0.0992962 0.05049934 -0.06663468 0.12330831
000060 e0 f6 26 be e0 a2 03 bc da 36 35 be cf 98 da bd
       -0.16305113 -0.008034438 -0.17696705 -0.10673677
000070 99 0d f0 3c a1 ea 11 be b6 5a cf bd a8 d1 8b 3e
       0.029303359 -0.1424966 -0.101247236 0.27308393
000080 d4 10 54 3d 20 47 5a be a8 9a a0 bb 0c 17 8d 3d
       0.05177386 -0.21316195 -0.004901249 0.068891615
000090 33 e2 ae bd 76 f8 7f 3d 98 8a f4 bd 2f 01 9f 3d
       -0.08539238 0.06249281 -0.11940497 0.07763898
0000a0 f9 4a 82 3d 5d 6e 17 bd 58 39 1f 3e 92 65 f2 3d
       0.06361956 -0.036970485 0.15549219 0.11835779
0000b0 18 f9 6b 3e d7 3a d1 3d cf 98 48 3c c1 18 e8 3b
       0.2304424 0.10216301 0.012243464 0.007083029
0000c0 71 ac c7 bc 09 38 a2 3c fd 14 8a 3e e8 87 ec 3d
       -0.024374219 0.01980211 0.26969138 0.115493596
0000d0 ac 5f 13 3e db ea e4 3d 32 e6 09 bd 46 d7 e9 bb
       0.14391965 0.111776076 -0.033666797 -0.0071362583
0000e0 1b 45 5d 3e d8 3f e9 bc 6a 6e 70 3e 05 7f 78 be
       0.21608393 -0.028472826 0.2347962 -0.24267204
0000f0 40 c8 17 3c 6a d5 5d 3e c7 1a 0b be 2f 1e 90 3d
       0.009264052 0.21663442 -0.13584433 0.07037007
000100 0e 50 a5 3d 6c 5b 25 be 22 d5 65 3d 59 1f 19 3d
       0.0807191 -0.16148156 0.056111462 0.03738341
000110 ae dc 0d be ba 20 45 be e3 57 2a bc 63 07 15 3d
       -0.13853714 -0.19250765 -0.01039693 0.036383998
000120 d5 78 f1 bb 8e 01 2a 3b 2a 37 0d 3e 24 8b 28 3e
       -0.0073691406 0.0025940868 0.13790575 0.16459328
000130 81 e3 0a 3e 13 c6 27 3e 08 d6 64 bd e9 94 0a 3c
       0.13563348 0.16384153 -0.05586818 0.0084583545
000140 7c 02 1d be 87 20 44 be a6 7c 6b be 03 33 62 bd
       -0.15332979 -0.19153033 -0.22996768 -0.05522443
000150 44 49 09 3e e3 ea e7 3c 11 87 0f be 73 6b 88 3e
       0.13406855 0.028310245 -0.14016367 0.26644477
000160 a6 b0 04 3e 65 f0 e1 3d a2 6d 00 3e 70 52 2a be
       0.12958011 0.1103218 0.12541822 -0.1663301
000170 c5 62 b3 3c 88 39 bd bd b7 19 a6 bd fb 43 03 3d
       0.021897683 -0.09239489 -0.081103735 0.032047253
000180 ef 5d ae 3d 86 cb 0b 3e 3b 13 09 bd 49 ae 3f 3e
       0.0851401 0.13651857 -0.033465605 0.18718828
000190 63 7e 5d 3d 3c db d3 3d f7 9e fc 3b 64 cf 56 3d
       0.05407561 0.1034455 0.00770938 0.052443877
0001a0 ec 1b 86 be 75 6b 2d 3e 70 8e b9 3d 3b c6 42 3e
       -0.26193178 0.16935523 0.09060371 0.19020931
0001b0 90 90 ff 3d be c6 82 3d 70 04 02 bc 77 48 00 be
       0.12478745 0.06385563 -0.007935628 -0.12527643
0001c0 ec 50 58 bd 19 89 28 3e 5a a1 06 bd 8c 4d 21 3e
       -0.052811548 0.16458549 -0.03286872 0.15752238
0001d0 f9 72 d7 3d a6 4b f6 bd 73 9c 12 3e ea aa 50 3c
       0.10519976 -0.120261475 0.14317493 0.012736062
0001e0 d2 d1 f3 3d 46 f3 51 ba b5 04 39 3e 40 57 99 bd
       0.119052544 -0.0008008968 0.18068202 -0.07487345
0001f0 36 af 8f 3c 5a c8 b8 3d 55 76 cf 3d 3e 0d 73 3d
       0.017539602 0.09022589 0.10129992 0.0593388
000200 46 7f a7 3d 95 c3 c6 3d 6f 66 e8 bd d2 4f 1d be
       0.08178572 0.09705273 -0.11347663 -0.1536248
000210 d2 6a 20 3e b3 c1 05 be fb 65 1f 3e 24 19 ce bd
       0.15665749 -0.13062172 0.15566246 -0.10063389
000220 42 df b9 bd 1f 35 11 3d 82 b2 e9 bc d2 94 15 3e
       -0.09075786 0.03545105 -0.028527502 0.14607552
000230 99 41 68 bd d9 23 03 be b8 6b 4b 3e 3c 54 0e 3e
       -0.056703184 -0.12806644 0.1986531 0.1389932
000240 f7 94 af 3d cc cb 06 bd 95 36 01 3e d3 c5 55 bd
       0.08573335 -0.0329092 0.12618478 -0.052190613
000250 f2 39 e1 bc 14 1b e4 bd 2c df 50 3d f4 ad fb 3d
       -0.02749345 -0.11137977 0.050994083 0.12289038
000260 f1 83 57 3d 9e f8 7f bc 96 95 de 3d a3 7c 22 be
       0.052616064 -0.01562324 0.10868375 -0.15867858
000270 85 f9 5c be d3 4a 05 be e5 78 42 ba 3b ab 50 be
       -0.21579559 -0.13016824 -0.00074185274 -0.20377819
000280 be 63 45 be 3f c0 47 be f0 70 e5 3d 82 a0 21 bd
       -0.1927633 -0.1950693 0.11203182 -0.039459713
000290 5b 76 12 3e cd 84 1c be 38 63 7d bd 39 14 65 3e
       0.14302962 -0.15285034 -0.0618622 0.22370996
0002a0 ee a9 30 be 3f 29 12 be d6 1b e3 bd 98 69 d1 3d
       -0.17252323 -0.14273547 -0.11089294 0.102252185
0002b0 ed 1c b8 bd 2b e9 37 be 65 69 ab 3d f4 27 29 3e
       -0.08989892 -0.1796004 0.08369712 0.16519147
0002c0 99 42 b3 3c 94 24 24 3e 6f bc d8 3d b9 8c 33 3e
       0.021882342 0.16029578 0.10582816 0.1753415
0002d0 98 4f 83 bc fe 8e b3 3d 55 82 79 3e 56 f5 c2 3c
       -0.016029164 0.08767508 0.24366124 0.023798626
0002e0 ba 76 0f be c6 87 f9 3d 8e eb 92 bd 55 61 d8 3d
       -0.14010134 0.121841 -0.07173835 0.105654396
0002f0 48 8c cc bd 7d a8 13 3e ab 47 39 3d 01 54 30 3e
       -0.09987694 0.14419742 0.045234364 0.17219545
000300 91 ee 69 bd 8e 17 e2 bc 7e d9 74 be a2 38 78 bd
       -0.05711228 -0.027599122 -0.23911092 -0.060600884
000310 27 9a ff bc 72 25 ec bd 93 01 ba 3d a3 fa 02 3e
       -0.031201435 -0.115305796 0.090823315 0.12790923
000320 e0 ae 22 be 4e 0d 7f 3d dc 74 86 be f8 b4 2e bc
       -0.15887022 0.062268548 -0.26261032 -0.0106632635
000330 cf da db bd 17 59 10 3d d2 2c 02 3b 63 1f df bd
       -0.10735094 0.035241213 0.001986314 -0.108946584
000340 d9 4f a6 bd a9 a2 3d 3e 5d 06 67 be cf 0a 2b 3e
       -0.081206985 0.18519081 -0.22561021 0.16703342
000350 bc 9c db 3c dd 71 43 be d6 39 60 bd f1 73 06 3c
       0.026808135 -0.19086404 -0.054742657 0.0082063535
000360 fa b5 bf bd eb 43 e8 bd ad 4b b1 bd 59 d5 c8 3d
       -0.09360881 -0.11341079 -0.08657012 0.09806318
000370 62 39 3a be 91 df b0 3d e0 e1 1c 3d a4 c6 12 3e
       -0.18185952 0.08636392 0.03830135 0.14333588
000380 7e 2f 48 be 00 c7 3d 3d 9e c6 5f 3d a7 2c 6a be
       -0.19549367 0.04633236 0.054632775 -0.22868596
000390 1c 00 4e be 34 46 36 bb 80 c7 c4 bd 0b 56 ed 3c
       -0.20117229 -0.002781284 -0.09608364 0.028971693
0003a0 e4 4e a6 3d 4f f7 37 bd 48 f4 b3 bd be 42 16 3e
       0.08120516 -0.044913586 -0.08786827 0.14673898
0003b0 18 c8 12 be cc af a2 bd 2a ac 4a 3e 50 4b 8a ba
       -0.14334142 -0.07943687 0.19792238 -0.0010551009
0003c0 8c e1 1d be 32 ff 49 3e 89 dc d0 bd 36 0e ac 3d
       -0.1541807 0.19726256 -0.10198314 0.08401148
0003d0 3f 01 ae bd 19 6e ca bd e8 ed 98 3e ff 72 18 be
       -0.084963314 -0.09884281 0.29869008 -0.14887618
0003e0 ed e1 2c be 34 6f 88 be 86 67 c3 bb 4b 39 ce bd
       -0.16883059 -0.2664734 -0.0059632687 -0.100695215
0003f0 e1 b3 5b 3d 2a 1e 0f be 98 4a 70 3d 33 e5 c0 3c
       0.053638343 -0.1397635 0.05866489 0.02354679

model.vf.vf.vf.2.weight f4 [20, 400]
000000 8e b4 44 3c 07 4c 88 3c a3 c6 8b bb ac 15 82 bd
       0.012005938 0.016637815 -0.0042656227 -0.0635179
000010 e1 04 2e 3d dc 5f d6 3c 93 37 d1 bd 8b c7 97 3d
       0.04248512 0.026168756 -0.10215678 0.07411107
000020 7b 18 28 bd 14 51 1d 3e 11 96 51 3d d6 3c 19 be
       -0.04103897 0.1536296 0.051168505 -0.14964613
000030 06 52 4d bd 48 45 ec 3d ea 4e 36 3d a2 f3 80 bd
       -0.05012705 0.11536652 0.044508852 -0.06296469
000040 3f 0e 9c bc b2 fe 0b be ae b1 32 bd 54 59 16 3d
       -0.019049762 -0.13671377 -0.04362648 0.036706284
000050 c2 df e5 bd b5 35 39 3d 96 38 62 bc f8 aa 18 3a
       -0.11224319 0.045217235 -0.013807436 0.0005823816
000060 33 7c b8 3d c5 cd 9b bc 77 94 c6 bd e9 a1 22 bd
       0.09008064 -0.019019017 -0.09696286 -0.03970519
000070 d6 a3 ac 3d 9e 21 b1 3c be 68 50 bd c2 b8 b4 bd
       0.08429687 0.021622475 -0.05088114 -0.08824302
000080 88 91 09 be c0 5b 3a be 3c bb c7 3d 48 32 1d 3d
       -0.13434422 -0.18199062 0.09752509 0.03837803
000090 2e fd a1 bd 50 df b9 3d b6 ca 7e 3d 38 4d 19 3d
       -0.07909618 0.090757966 0.06220504 0.037427157
0000a0 ee 66 7c bc 67 fc 59 3d 24 38 e3 bd 3e ae dd 3d
       -0.0154054 0.053219225 -0.11094692 0.1082425
0000b0 08 2b f6 bd c8 88 0a 3d a2 7d d6 3d dc ce b7 3d
       -0.12019926 0.03382185 0.10473181 0.08975002
0000c0 57 c0 37 bc 67 03 cf bd 43 fc bf bd 92 31 02 bd
       -0.011215291 -0.10108071 -0.09374287 -0.031785555
0000d0 7e b6 a7 bc 29 6c d8 bd f6 d5 0a bb 4e 43 87 bb
       -0.020472761 -0.10567505 -0.002118466 -0.0041278964
0000e0 43 0c 22 3d 0a 0f d9 3b bf a5 8a bd f9 00 b9 3d
       0.039562475 0.0066241072 -0.06769895 0.09033389
0000f0 10 02 f0 3d 2a 5f b4 bd 4c 9d d3 bd 55 c9 8f 3d
       0.117191434 -0.088072136 -0.103327364 0.07020823
000100 34 c4 25 bc f4 4a bc bd 81 f5 24 bd 0e 23 18 bd
       -0.010117579 -0.09193984 -0.040273193 -0.037142806
000110 ce a9 09 be 29 48 dc 3d 67 21 8d 3d 99 8e f5 ba
       -0.13443682 0.10755951 0.068911366 -0.0018734514
000120 9c bc 4d 3d 52 39 3d bd 1c 2a d1 3b 1f 00 52 bd
       0.0502287 -0.046197243 0.0063831937 -0.051269647
000130 ea 98 8f 3d 4f ec 00 be 06 1f dd bd ae 54 87 3d
       0.07011588 -0.12590145 -0.10796933 0.06607948
000140 68 38 78 bc a4 e4 7f 3d 97 6d 62 3d b0 b7 b6 bd
       -0.015150167 0.062473908 0.055280294 -0.08921754
000150 ce b4 30 be f4 00 71 3c d7 0a f9 3d 1d 0d af bd
       -0.17256472 0.0147097 0.12160271 -0.08547423
000160 aa 7b db bd 48 a3 00 3e 7b fa 37 bc 5a 01 a5 3c
       -0.107169464 0.12562287 -0.011229153 0.020142246
000170 7c 7d 1d 3d 64 22 ab bc 01 4c 19 bd d2 a5 09 bd
       0.03844975 -0.020890422 -0.037426 -0.033605404
000180 1e 73 ea 3c 08 6d 9e 3c fc 19 0e 3c 9a 4b d4 3b
       0.028619345 0.0193391 0.008673187 0.006478739
000190 c4 2c 9b bd c9 74 cd 3d 8a 20 ab 3b 46 4a c4 bc
       -0.07576898 0.100320406 0.005222385 -0.023961198
0001a0 e3 ae 97 3c cb 9f bf bd 86 0f d0 3d 13 c9 2e be
       0.01851601 -0.0935665 0.10159211 -0.17068891
0001b0 dc 58 ce bd af c2 5f bd 53 aa 05 3e 9f 72 f3 3c
       -0.10075542 -0.054629024 0.13053255 0.029717742
0001c0 7a e7 9f 3b 1f c8 b0 bd 2a dc 9d 3d 85 a6 16 be
       0.004879889 -0.0863192 0.077080086 -0.1471196
0001d0 11 d8 e2 bd 26 15 dd 3d ea d3 0b 3c 2d a5 bf 3d
       -0.11076368 0.10795049 0.008534411 0.09357677
0001e0 de 73 a9 bc 71 b3 b7 3d 09 5c ed 3d 88 fb a0 bc
       -0.020685133 0.089697726 0.1158982 -0.01965119
0001f0 be 74 1a 3d ad 0c ac bd 38 16 d9 bd 2e 25 de 3b
       0.03770899 -0.08400855 -0.10599941 0.0067793345
000200 3c cf 54 bd d5 c9 e2 bd 01 ec d8 bc a9 fe 3b bb
       -0.051955447 -0.11073653 -0.026479723 -0.0028685725
000210 24 e4 8c bd 57 9a ba 3d aa 24 de bd 32 78 26 3e
       -0.06879452 0.09111469 -0.10846837 0.16256788
000220 f1 2d 62 3d 8e 47 93 3d 9a 2d b4 bb 41 45 7c 3c
       0.055219594 0.07191382 -0.0054986 0.015397371
000230 fa e0 bb bd 12 4b b1 3c 06 cc 97 3c 96 9b cb bd
       -0.0917377 0.021642242 0.018529903 -0.09941785
000240 e8 7c 7b bd dd 68 87 3d e6 d2 7d bd 28 2e 39 3e
       -0.061398417 0.06611798 -0.061968707 0.18084013
000250 14 d3 ad bd 0f 33 30 bd 88 3f 35 3d c9 df 6d 3c
       -0.084875256 -0.043017443 0.04425004 0.014518687
000260 22 06 cc bd e0 7b e8 bd 23 d7 cb bc ca f5 0b 3d
       -0.09962107 -0.11351752 -0.024882859 0.03416995
000270 c3 7e bb 3d 8c 99 32 bd 0e 1d 1f be fb e6 f8 3d
       0.09155037 -0.043603465 -0.15538427 0.12153431
000280 42 18 b9 bd d2 3d 6e bc 3d 3d 78 3d 75 4f 8d 3d
       -0.0903783 -0.014541106 0.060605276 0.06899921
000290 a0 91 ae bd 72 7f 83 3d fe ca bb bd 5b d3 83 bd
       -0.085238695 0.06420793 -0.09169577 -0.06436797
0002a0 a0 9d 51 3d 7e 3f eb 3d 95 ef ff 3d 79 87 aa 3d
       0.051175714 0.114867195 0.124968685 0.083266206
0002b0 ad 21 3c 3d 71 26 14 be a5 07 40 3d 0a b7 1c bd
       0.045930553 -0.14467789 0.04688229 -0.038260497
0002c0 02 13 48 3d 03 c7 58 3d d6 d7 db bd 0c 07 04 be
       0.048846252 0.052924167 -0.10734527 -0.12893313
0002d0 25 74 93 3d 26 93 a5 3d 0a eb 05 3e 67 7e 19 bd
       0.07199887 0.08084707 0.13077942 -0.037474062
0002e0 51 a4 a6 3d 12 44 d6 bb 24 43 b7 bd 2c c0 83 3c
       0.081368096 -0.0065388763 -0.08948353 0.016082846
0002f0 8c 7a d9 3d 3c ea 85 3d 91 46 7c bd ac 87 d8 3d
       0.10619077 0.06538817 -0.061590735 0.10572752
000300 57 10 d6 3d a0 41 a4 3c 94 50 a6 3d 8d 64 09 be
       0.10452335 0.020050824 0.08120838 -0.13417263
000310 1c a5 bc 3d f4 a1 94 bd d3 90 b7 3d 1c ab 74 3d
       0.092111796 -0.072574526 0.0896317 0.059733495
000320 1b 72 cd 3d ea 88 0e bb 49 05 55 3d 7e 61 98 bd
       0.100315295 -0.0021749088 0.052006993 -0.0744047
000330 34 89 ff 3d bb 44 13 be 42 f5 99 3d de 1d 90 3d
       0.12477341 -0.14381687 0.07517482 0.07036947
000340 3a 1c 12 3e 45 bf bd 3a 58 24 95 3d 4b 03 33 3e
       0.1426858 0.0014476558 0.07282323 0.17481725
000350 38 46 fc 3d bf ee b1 bd 8d e8 f7 bd 19 3c ed 3b
       0.12318081 -0.08688115 -0.121049024 0.00723983
000360 72 45 63 bd 18 72 8c bc b3 b5 8c 3d a3 6a b2 bd
       -0.05548615 -0.017144248 0.06870594 -0.087117456
000370 98 23 91 3d 6d 61 5b 3b ca 18 05 3d c3 a9 db 3c
       0.07086867 0.0033474818 0.032494344 0.026814347
000380 a0 63 9b bd 11 dc de bd fd e6 87 bb 9c 07 bb 3d
       -0.07587361 -0.10881818 -0.004147409 0.09132311
000390 b5 be 77 3d b4 c5 1d bd d9 9a b2 bd 3f 37 38 3d
       0.060484607 -0.038518623 -0.08720941 0.04497456
0003a0 87 10 f7 bd 18 8b 51 bd f7 60 b1 bc 94 a2 bc bd
       -0.12063699 -0.05115804 -0.021652682 -0.09210697
0003b0 e3 db 92 3d 05 cb ee 3c b0 8c 9e bd e6 ec bd bc
       0.07170846 0.029149542 -0.07741678 -0.023184251
0003c0 8c d7 f3 3d bd 34 e5 bd c1 ab 38 bd 75 b5 05 be
       0.11906347 -0.111917 -0.045085672 -0.13057502
0003d0 9a d9 e5 3d f1 4d d0 3d 83 cf 87 bd 45 5a dd 3c
       0.11223145 0.10171116 -0.066313766 0.027020583
0003e0 08 d7 d7 bd b0 6b 68 3d 51 79 90 bd 2b 80 b6 bc
       -0.10539061 0.056743324 -0.07054389 -0.022277912
0003f0 53 d0 f7 bc 5a d4 4f bd a8 e6 4a bd 23 b0 be bd
       -0.030250704 -0.050739624 -0.049536377 -0.09310939

model.vf.vf.vf.2.bias f4 [20]
000000 6a ec 92 bc 0e e7 42 bd 4e ab 86 bd 98 69 86 bd
       -0.017934997 -0.047583632 -0.065756425 -0.06563109
000010 5b a6 70 bd 7a 42 c4 bd 7b bc 52 bd 87 a8 fa 3d
       -0.0587524 -0.09582992 -0.05144928 0.12239175
000020 b4 93 25 bd 99 5d 84 bd e8 00 c0 ba 42 1e 84 bc
       -0.040424064 -0.06463165 -0.0014648708 -0.01612771
000030 fd 09 af 3c 82 5d 25 3e 54 95 d2 3c d5 7b 2a 3c
       0.021367067 0.16148952 0.02570597 0.0104055
000040 0d ab 7d bc 22 6c 0f 3d e4 4b 85 3c d0 c8 c5 bd
       -0.015482676 0.035015233 0.016271539 -0.096574426

exp_avg f4 [400, 20]
000000 16 68 5a 41 f0 6d 9e 41 bc 50 a4 41 52 75 90 41
       13.650412 19.80368 20.539421 18.057285
000010 a2 32 39 41 1f 01 b1 bf 45 12 8d 41 7f 5d 63 41
       11.574862 -1.3828467 17.63392 14.210326
000020 7d a5 7d c2 70 19 04 3f 12 95 83 41 13 3a a8 41
       -63.41161 0.51601315 16.447788 21.028357
000030 7b a9 5a c0 bc ad 33 42 96 fd eb c0 e5 53 6e 41
       -3.4165943 44.919662 -7.3747053 14.895482
000040 7a ef 6b c0 90 b5 bb c1 59 44 51 41 4b a5 9e c0
       -3.6864915 -23.463654 13.079186 -4.9576774
000050 59 c6 e4 c0 3c 8b 0f c1 6a 42 f2 c0 3b 93 11 c1
       -7.1492124 -8.971493 -7.570607 -9.098445
000060 6c 94 b3 c0 4c 32 69 bf 13 d5 f7 c0 0e 57 6b c0
       -5.611868 -0.9109237 -7.74476 -3.6771884
000070 95 28 d3 41 1c 3b f8 be 73 93 03 c1 8c a0 14 c1
       26.394815 -0.48482597 -8.223498 -9.289196
000080 fb 77 e7 3f d6 dc 77 c1 56 bb 3c 40 90 f3 f0 c0
       1.808349 -15.491415 2.948934 -7.5297318
000090 79 7c 0d 40 90 83 26 41 31 08 b1 c0 50 12 07 40
       2.2107222 10.40712 -5.53225 2.1104927
0000a0 d8 6d 2f 41 bc f8 14 41 9a c6 dc 40 fe ed 08 41
       10.964317 9.310726 6.8992434 8.558104
0000b0 32 8d c7 40 b8 da 5a 40 d7 a7 b8 40 b2 38 13 3f
       6.2359858 3.4195995 5.7704883 0.57508385
0000c0 81 f2 53 c1 03 80 ca 3f 43 f5 f0 40 10 3c e3 40
       -13.246705 1.5820316 7.529939 7.101082
0000d0 55 fa e1 bf fc 34 42 40 40 a2 29 c0 08 41 9b 40
       -1.765452 3.034484 -2.650528 4.8516884
0000e0 24 13 c7 bf 14 22 cc c0 d9 62 72 40 63 79 f4 bf
       -1.5552716 -6.37916 3.7872832 -1.9099544
0000f0 42 cb fb 40 f7 5d 83 40 58 0d 4e 40 8f a0 7f 40
       7.8685617 4.1052203 3.2195644 3.9941747
000100 8e 6f 26 40 6f cb 92 40 f4 b9 d1 3d d8 b0 e3 bf
       2.6005588 4.587333 0.10240546 -1.7788343
000110 76 1b 18 40 10 b6 3d 3f 44 42 23 40 ad 24 50 bf
       2.376676 0.7410593 2.5509195 -0.8130596
000120 eb 30 d0 3e 32 35 4d c0 3a 01 1d 3f 95 59 af be
       0.4066232 -3.2063718 0.61329997 -0.34248033
000130 8f 11 71 bf fe 06 a3 3f 02 0b 90 be 4e 05 59 3f
       -0.9416742 1.2736509 -0.28133398 0.8477372
000140 0b 03 95 41 d4 da 07 41 33 c5 c1 40 b6 49 42 40
       18.626486 8.490925 6.055322 3.035749
000150 00 1c 83 3f 0c dc c1 3f d2 68 6a 40 1e e9 63 3f
       1.024292 1.5145278 3.6626477 0.89027584
000160 16 e5 40 40 15 69 7c 3f 02 d4 03 40 9c 28 a3 3e
       3.0139823 0.9859784 2.059815 0.3186692
000170 df d1 0f 3f 55 7a bf c0 65 44 11 c0 cd 35 3f 3f
       0.5617961 -5.983683 -2.2697995 0.7469147
000180 05 81 28 bf af 45 36 bf d7 c3 07 c0 fc c5 54 40
       -0.6582187 -0.7120008 -2.121328 3.324584
000190 8e 10 98 c0 83 2c 68 c0 79 e4 3d c0 4f c1 33 c0
       -4.752021 -3.6277168 -2.9670699 -2.8086736
0001a0 b1 df 1c c0 44 f3 4e bf c2 a5 7a bf c2 46 8a be
       -2.451153 -0.80839944 -0.97909176 -0.2700711
0001b0 d6 e1 64 3f 28 b4 ca be 39 77 8b bf 6c 12 a9 bf
       0.894071 -0.39590573 -1.0895759 -1.3208747
0001c0 b4 93 04 3f 08 02 70 3f 5e cd fa 3d 00 05 48 bb
       0.5178788 0.937531 0.12246202 -0.0030520558
0001d0 38 59 bb bd ab e2 39 3f 60 59 2c bf 69 0a 10 3f
       -0.091478765 0.7261149 -0.67323875 0.56265885
0001e0 ee 8f 4d c1 d9 9a df c1 86 8d bb c1 b7 92 8a c1
       -12.847639 -27.95061 -23.444103 -17.321638
0001f0 78 f0 b8 bf e8 38 e1 3f b4 12 70 c0 e8 41 24 c1
       -1.4448385 1.7595491 -3.7511415 -10.26609
000200 07 d0 a2 41 ec 4e 62 40 b4 b1 16 c0 ca d0 f9 bf
       20.351576 3.536067 -2.3545961 -1.9516842
000210 24 dc 35 c1 49 09 b9 c2 60 a3 51 3e 78 c8 80 c1
       -11.366245 -92.518135 0.20472479 -16.097885
000220 37 95 ba 40 06 bd 66 40 04 ab 03 c0 7c 36 64 40
       5.8307147 3.605287 -2.057313 3.5658255
000230 9f 44 d0 c1 d6 20 78 c1 c2 bf 76 c1 48 32 d3 c1
       -26.033506 -15.508017 -15.421816 -26.399551
000240 be 02 ad c1 b1 c7 93 c1 a9 f0 8b c1 22 23 18 c1
       -21.626339 -18.472506 -17.49251 -9.508577
000250 30 3c cc c0 0a 8f 8b c0 a4 82 30 c1 42 be 14 c1
       -6.382347 -4.361211 -11.031895 -9.29645
000260 60 0a a5 be 50 3e 44 41 74 44 8b 40 76 48 73 bf
       -0.32234478 12.265213 4.352106 -0.9503244
000270 7e 8c 55 c0 6b 76 00 41 c0 7d 19 3d 0c be 35 40
       -3.3367 8.028911 0.03747344 2.8397245
000280 18 a8 ab 41 21 2a 38 42 78 fd 7b 42 95 b1 38 42
       21.457077 46.04114 62.997528 46.17342
000290 0e c4 d9 41 d4 c7 b3 c1 82 10 6d 42 3c c5 a0 42
       27.22073 -22.472572 59.26612 80.38522
0002a0 0a d9 4e c3 7b ec 06 c0 b9 d1 48 42 57 79 89 42
       -206.84781 -2.1081836 50.204807 68.73699
0002b0 81 9b 35 c1 2e 5a 0a 43 ae 78 a2 c1 24 9f 4b 42
       -11.350465 138.35226 -20.308926 50.90541
0002c0 1b f6 05 c1 ec 60 9d c2 97 01 2a 42 d6 c5 8b c1
       -8.372584 -78.6893 42.501553 -17.4716
0002d0 97 88 3e c2 e2 11 d5 c1 40 2e ba c1 56 8b 6e c1
       -47.63339 -26.633732 -23.272583 -14.909018
0002e0 ca a0 96 c1 ff df 3d c1 d5 0e c0 c0 b6 d9 89 40
       -18.82851 -11.867187 -6.0018106 4.307826
0002f0 08 70 34 c1 da c4 4b c0 c5 e7 b4 40 56 c0 fb c0
       -11.277351 -3.1838899 5.653292 -7.8672285
000300 ed 29 88 41 2e 40 70 42 ba 77 10 3f 61 d8 5b 41
       17.020472 60.062675 0.5643269 13.740327
000310 02 a3 f2 bf 4e cd 4f 41 47 45 4b 40 3d ff 03 40
       -1.8955996 12.987623 3.1761034 2.0624535
000320 10 17 82 40 a3 2b a8 40 d1 8c f0 40 e8 99 ce 40
       4.0653152 5.2553267 7.5171895 6.4562874
000330 cd 9e 90 40 ea c7 aa c0 31 1d 11 41 5e 94 30 41
       4.519385 -5.3369036 9.069627 11.036222
000340 4a 9c f6 c1 53 6f 4d bf f5 35 a0 40 5f 4d 1a 41
       -30.826313 -0.8024799 5.0065866 9.643889
000350 88 cf 9d c0 b6 4e b6 40 b9 ee 45 c0 b5 b7 d7 40
       -4.9315834 5.6971083 -3.0926955 6.741175
000360 9e 00 5f 3f df 43 5a c1 95 48 dc 40 b3 49 99 c0
       0.87110317 -13.64157 6.88386 -4.7902465
000370 b9 df 8a 41 13 e5 2a 41 0e 13 69 41 52 5d 13 41
       17.35924 10.680926 14.567152 9.210283
000380 a8 93 51 41 7a f7 95 40 c4 e9 3c 41 e4 9e db 3f
       13.098549 4.6864595 11.807072 1.7157865
000390 02 ba 29 41 84 5a 9b 40 27 c0 0e 40 ee ac d0 40
       10.607912 4.8547993 2.230478 6.5211096
0003a0 c0 1a 77 c0 5e cf ee c1 ba a3 f6 c0 b8 84 8e c0
       -3.8610077 -29.851254 -7.707486 -4.453701
0003b0 2d 0a 03 40 a3 bc c7 c0 34 8a 98 bf 40 22 9d 3f
       2.047496 -6.241777 -1.1917176 1.2276077
0003c0 63 ce 9b c1 a2 05 00 c1 ca 9b 4f c0 fe 3d cc c0
       -19.475775 -8.001375 -3.2438836 -6.3825674
0003d0 c6 e5 24 c1 c2 af 4e c1 f2 7b 0c 3f 14 65 df 40
       -10.306097 -12.91791 0.54876626 6.9810886
0003e0 9e 3c 8c c1 e2 56 02 c0 26 90 43 bf 10 4a 3a 40
       -17.529598 -2.036553 -0.7639183 2.9107704
0003f0 93 0a de bf 2f 24 33 42 19 b3 88 3f 1e b6 21 41
       -1.7346977 44.785336 1.0679656 10.106962

exp_avg_sq f4 [400, 20]
000000 62 fb 83 43 bc 8d 51 43 0d 11 21 43 8e f4 c2 42
       263.96393 209.55365 161.0666 97.477646
000010 d2 e7 3e 42 07 39 bb 41 94 6f 31 42 28 a5 c1 41
       47.726387 23.402845 44.358963 24.205643
000020 43 f1 ba 43 f3 59 ef 3e 8a 3e db 41 f4 6b 37 42
       373.88486 0.46748313 27.405537 45.855423
000030 3d 80 30 40 89 44 65 43 39 8f 9d 40 1b cc fd 41
       2.757827 229.26772 4.923733 31.72466
000040 90 7f 1f 40 9c 57 57 42 ae 23 93 41 44 cd 46 40
       2.4921608 53.835556 18.392422 3.1062784
000050 93 15 96 40 fd 5e 32 41 ba 54 35 41 5c ea 24 41
       4.6901336 11.1481905 11.333185 10.307217
000060 71 f2 35 40 fb b4 94 40 3d 53 57 41 36 5a 93 40
       2.8429224 4.6470923 13.457822 4.604762
000070 58 2a cd 42 a3 e8 52 3f 7b 3e 30 41 a0 13 87 41
       102.5827 0.82386225 11.015254 16.884583
000080 d0 6b 41 40 73 d1 47 42 0f 2f fb 3f 72 4e 9e 41
       3.0222054 49.95454 1.9623736 19.788303
000090 6a 78 c6 3f 56 00 b8 41 84 b7 ad 40 c5 37 c2 3f
       1.5505497 23.000164 5.428652 1.517327
0000a0 da 0a e7 41 7c ca 92 41 e6 16 25 41 1d 1a 6d 41
       28.880299 18.34887 10.31809 14.818875
0000b0 d1 08 11 41 47 0a 84 41 66 d7 24 41 4e 9f ee 40
       9.064652 16.505018 10.3025875 7.4569464
0000c0 96 cc 61 42 07 e0 28 40 77 c3 5b 41 dd d0 5a 41
       56.44979 2.6386735 13.735221 13.675992
0000d0 b0 d3 82 40 69 a0 a6 42 a8 65 70 40 7f 90 86 41
       4.0883408 83.3133 3.7562046 16.820555
0000e0 af c5 f6 3f fe 0a 83 41 46 ad 8b 40 19 21 af 3f
       1.9279078 16.380367 4.3649015 1.3681976
0000f0 11 70 29 41 5b 9d 04 41 6f 39 be 40 f1 65 72 40
       10.58986 8.288417 5.944511 3.787472
000100 bd 15 2b 40 0c b2 88 40 ec 73 95 40 7f da 15 40
       2.6732018 4.271734 4.6704006 2.341461
000110 2d 71 b0 3f ba 73 b5 3f ea 33 97 40 c2 8f 6c 40
       1.3784539 1.4175942 4.725087 3.6962743
000120 3a 2b 8e 3f 61 85 11 41 fd c8 ce 3f f7 aa db 3f
       1.1106942 9.095063 1.6155087 1.7161549
000130 bc ee 92 3f 25 b8 d9 3f e8 be a9 3e f0 56 38 3f
       1.1479106 1.7009321 0.33153462 0.72007656
000140 cf 0a ce 42 36 98 85 42 74 c9 8f 42 4b 36 fd 41
       103.02111 66.79729 71.89346 31.65151
000150 f0 4f 0f 42 b0 fd 93 42 d0 cf a2 42 44 b2 7d 42
       35.828064 73.99548 81.40588 63.424088
000160 e8 d2 d3 40 41 fb cc 3f 6f 42 6a 40 a2 d8 c0 41
       6.6194954 1.6014177 3.6603048 24.105778
000170 17 cd ee 40 7f 1e 65 42 6d 26 6d 41 75 d8 15 42
       7.4625354 57.27978 14.821881 37.461384
000180 49 3b e0 40 5d 17 76 41 d2 f5 50 41 16 1c 6e 41
       7.007237 15.380704 13.060015 14.881857
000190 92 16 19 42 da 51 be 41 7f e8 36 41 e3 87 f1 40
       38.27204 23.789967 11.431762 7.5478377
0001a0 98 af c6 40 7c 30 fe 3f b4 3a 4d 3f bb 3a c6 40
       6.208935 1.9858546 0.801677 6.1946692
0001b0 7b 6b 3a 40 6d 1a 2c 3f ad 83 1b 40 67 be 96 3f
       2.91281 0.6722782 2.4299119 1.1776856
0001c0 0c d2 26 3f f9 81 a2 41 2b 31 01 3f 1e 3d 08 40
       0.65164256 20.313463 0.5046565 2.1287303
0001d0 4b af af 3f 58 29 77 3e c2 4f 37 40 b1 2d 32 3f
       1.372537 0.24136865 2.864243 0.6960097
0001e0 d3 be b2 45 aa f1 55 45 25 4b 11 45 48 99 c1 44
       5719.853 3423.104 2324.6965 1548.79
0001f0 a3 fd 84 44 6a 0b 0b 44 a6 54 55 43 ca 78 09 42
       1063.9261 556.17834 213.33066 34.367958
000200 9e 99 3c 43 46 e9 98 41 2d 49 2c 41 49 a2 f9 40
       188.60007 19.113903 10.767865 7.80106
000210 5f 6a 7b 41 94 c3 c3 44 6d 8f 96 41 91 1c 87 42
       15.7134695 1566.1118 18.820032 67.55579
000220 7b e0 79 41 ae 8d 40 40 3a d5 18 40 e7 aa 9c 40
       15.617305 3.0086474 2.3880143 4.895862
000230 45 c1 97 45 b9 66 c5 44 7e f0 81 44 8d 39 3b 44
       4856.1587 1579.2101 1039.5154 748.89923
000240 97 8c 7d 44 af 9e 0e 44 c3 7a 4a 43 7f 8c fe 42
       1014.1967 570.47943 202.47954 127.27441
000250 f8 04 2e 44 40 fc 9b 42 d8 35 81 42 a8 05 fb 42
       696.07764 77.992676 64.60516 125.51105
000260 df 13 1a 43 d9 f0 f8 45 de 46 6e 42 6f 95 a5 43
       154.07762 7966.106 59.569206 331.16745
000270 0f ce d7 42 36 18 c0 42 fe e1 20 42 b6 80 4f 42
       107.90246 96.04729 40.220695 51.875694
000280 56 df 1e 44 11 f5 0a 44 24 59 32 44 b3 15 ec 43
       635.4896 555.82916 713.3928 472.16953
000290 f5 82 ad 43 11 fd ab 43 bd 8b 17 44 60 4b 72 44
       347.0231 343.97708 606.1834 969.17773
0002a0 80 13 c8 45 b5 98 4d 41 df 60 f6 43 6c 1d 39 44
       6402.4375 12.849782 492.7568 740.4597
0002b0 57 5b 1f 42 62 43 10 45 85 7e cc 42 27 16 e3 43
       39.8392 2308.2114 102.24711 454.17307
0002c0 38 75 83 42 29 45 64 44 25 ba d4 43 2a 3d 9e 42
       65.72894 913.0806 425.45425 79.11946
0002d0 72 69 88 45 f8 00 4d 44 31 e0 3d 43 6a 19 07 44
       4365.1807 820.01514 189.87575 540.3971
0002e0 0b 79 a3 44 6b a3 d0 44 6b 27 11 42 76 c5 08 44
       1307.7826 1669.1068 36.288494 547.0853
0002f0 dd 12 d3 44 cf 85 95 41 f2 f0 f0 40 ff fd 85 42
       1688.5895 18.690336 7.5294123 66.996086
000300 8b ba 96 42 5f fa 71 46 5b 8b 58 43 ad a3 96 44
       75.36434 15486.593 216.54436 1205.1149
000310 0c d3 28 44 57 ba 82 43 64 b5 47 43 5a bc 06 43
       675.2976 261.45578 199.70856 134.73575
000320 0b df 47 42 33 67 0c 42 41 3e f6 41 b5 06 bd 41
       49.967815 35.10078 30.780397 23.628275
000330 0d d2 35 41 82 13 d0 40 3f e8 8e 41 30 cf 58 41
       11.363782 6.5023813 17.863401 13.550583
000340 48 0b b5 42 cc 70 a3 40 57 79 8d 41 1c 93 80 41
       90.52203 5.107519 17.684248 16.07183
000350 59 b4 a1 40 77 d1 6a 41 e5 2e dd 40 37 a5 02 41
       5.053265 14.676139 6.9119744 8.165336
000360 02 10 cf 3f e6 51 c6 41 6c 5c a5 40 67 21 57 40
       1.617676 24.78999 5.167532 3.3614137
000370 65 32 dd 43 60 da 03 43 b1 1b 14 43 8a 8c 8d 42
       442.3937 131.85303 148.10817 70.77449
000380 ae b3 f6 42 f1 cc a3 43 b5 14 c4 42 1c 02 40 43
       123.35094 327.6011 98.04044 192.00824
000390 c4 68 13 43 2c 4c 77 41 fa 9f 5c 41 d2 15 a3 42
       147.40924 15.456097 13.789057 81.54262
0003a0 b9 09 8f 41 97 d9 94 44 44 b5 00 42 fe c1 1b 43
       17.879747 1190.7997 32.177017 155.75778
0003b0 a3 33 3b 42 02 e7 47 42 09 40 1b 42 84 38 ce 41
       46.800426 49.975594 38.812534 25.777596
0003c0 d2 35 8c 43 71 08 45 42 14 76 da 40 91 bf 27 42
       280.42047 49.258244 6.826914 41.937077
0003d0 49 da c0 42 78 64 07 43 92 cc 60 40 cb c6 59 42
       96.42634 135.39246 3.512486 54.444134
0003e0 08 29 0e 43 3f 21 34 40 01 ad ad 40 54 e2 71 41
       142.16028 2.8145292 5.4273686 15.117756
0003f0 5c 30 cf 40 14 3c 8a 44 94 61 85 41 92 ca c4 42
       6.4746532 1105.8774 16.672646 98.395645

exp_avg f4 [400]
000000 a2 e7 03 bf 6c 96 9b 40 eb 97 0c c1 72 7c 0e c1
       -0.5152532 4.862112 -8.787089 -8.905382
000010 cf 76 7d c0 60 51 2b bf 00 4d 11 c0 d3 0d 60 40
       -3.9603765 -0.66921043 -2.2703247 3.5008438
000020 98 b2 c0 40 b4 99 58 c1 a4 3d 2e 41 50 1d 75 40
       6.021801 -13.537525 10.890049 3.829914
000030 99 df 1c 41 f0 4a c3 40 d2 f7 fd c0 28 ae a3 3e
       9.804589 6.1028976 -7.9365015 0.31968808
000040 3b 2f 61 c0 3f f2 db 40 75 da 0e 40 51 79 07 c0
       -3.5185077 6.873321 2.2320836 -2.1167796
000050 22 76 80 40 26 77 e5 3f 80 d8 a2 c0 4b 51 0a c0
       4.0144205 1.7926986 -5.088928 -2.1612117
000060 00 f0 d0 3d a0 af 16 c1 65 a9 cb 40 ec 75 41 bf
       0.10202026 -9.417877 6.364428 -0.7557056
000070 0f 4a 80 40 9d 25 52 c1 3e f2 2a c1 d9 f7 0f c0
       4.0090404 -13.134183 -10.684141 -2.2495024
000080 fa 81 1c 41 40 aa ff 40 9e 57 b9 c1 de 3d e0 40
       9.781733 7.9895325 -23.167782 7.007552
000090 56 6a f2 c0 fc 45 05 c1 75 95 e1 40 8f 7a 1d c1
       -7.5754805 -8.329586 7.0494943 -9.842422
0000a0 a4 65 3c 41 9d 6a 2a c0 80 25 42 be 3f d8 aa c0
       11.774815 -2.6627572 -0.18959618 -5.338897
0000b0 d0 e0 43 41 80 71 2f c0 34 49 2d 40 16 bf 5f 40
       12.242386 -2.7413025 2.707593 3.496038
0000c0 d4 88 a2 40 a1 4f 82 40 a3 18 1f c0 ec f3 d9 c0
       5.0792027 4.0722203 -2.4858787 -6.8110256
0000d0 80 03 67 3d 19 cf 01 40 8c 4e 2c 41 8c b0 02 c1
       0.056399822 2.0282652 10.7691765 -8.168102
0000e0 48 7d b8 be 3a d2 7c c0 a7 78 29 c0 ab 8b b4 bf
       -0.36033082 -3.9503312 -2.647989 -1.4105123
0000f0 df 17 63 c0 ca ba 58 c0 b2 03 6d 41 8e 58 00 40
       -3.548332 -3.3864007 14.813402 2.005405
000100 c3 3d 80 c0 6b b7 3e 40 51 d9 98 c0 5e c8 60 40
       -4.0075393 2.979945 -4.776528 3.5122294
000110 e9 b3 1b c1 f0 86 5f c1 fc 40 d6 be 46 e8 8e c0
       -9.731423 -13.970444 -0.41846454 -4.4658537
000120 f4 de 33 40 cf 4c 04 c1 66 79 0f c1 1a a4 7a 41
       2.810483 -8.268752 -8.967138 15.665064
000130 d9 00 a1 bf b1 47 1f 41 a6 c5 19 41 ca 47 a1 bf
       -1.2578384 9.955003 9.610754 -1.2600033
000140 a5 d8 b2 40 d5 91 1b 3f a3 48 02 41 f5 ec ba 40
       5.588946 0.607694 8.142734 5.8414254
000150 3b 8c 0a 41 a6 b3 78 c0 b4 03 25 3d 6a 3a ac bf
       8.659236 -3.8859649 0.040286735 -1.3455327
000160 ad 4b b5 bf 7e ac b4 c1 4c cf ba c0 13 14 b1 c0
       -1.416372 -22.584225 -5.837805 -5.5337005
000170 85 b8 25 41 6f da bf bf 5e e1 e6 bf 84 cc 5e 40
       10.357549 -1.4988536 -1.8037527 3.4812326
000180 8c ce 25 41 3e dc 02 c1 97 0f 05 40 66 ee eb 40
       10.3629265 -8.17877 2.0790765 7.3728514
000190 52 90 ed 40 2a f4 0b c1 2a de 15 41 06 f6 8f 40
       7.423867 -8.74711 9.366739 4.498782
0001a0 e6 1b 3a c0 e2 f5 0a c0 9c dd 22 c0 94 0a ec 40
       -2.9079528 -2.1712575 -2.544776 7.3762913
0001b0 1f 46 5a 40 a7 96 a3 40 14 5a 95 c0 93 ae 50 40
       3.4105299 5.11214 -4.667246 3.2606552
0001c0 d7 eb de 40 eb 25 7e 41 de 86 97 40 a1 73 ae 41
       6.966289 15.884257 4.7352133 21.80646
0001d0 b0 7f 60 3e bc f3 4e c0 60 18 41 41 e0 04 03 c1
       0.21923709 -3.2336264 12.068451 -8.18869
0001e0 cd f0 19 41 d2 09 0c c1 50 96 4d c1 36 e8 3f 41
       9.621289 -8.752398 -12.849197 11.994192
0001f0 81 b8 6b c0 23 4f f0 40 d0 47 22 40 33 b5 d7 c0
       -3.6831362 7.5096602 2.535633 -6.740869
000200 44 b0 75 41 d0 19 d7 40 e6 f5 33 c0 d2 fe 21 c1
       15.355534 6.721901 -2.8118834 -10.124712
000210 60 20 de c0 56 97 0b c1 a8 f5 83 41 52 88 d2 c1
       -6.941452 -8.724447 16.49495 -26.316563
000220 fc f0 c8 c0 fa 7c 13 41 ae fd 7a c0 0f d5 0b 41
       -6.279417 9.218012 -3.9217334 8.739516
000230 6b 8b 30 c1 24 f8 fa 40 84 8c 3f 3f 7d c0 d3 40
       -11.034038 7.8427906 0.74823785 6.617247
000240 2f 30 60 40 6c db 21 41 d5 f1 cb 40 64 c8 62 c1
       3.502941 10.11607 6.3732705 -14.1739235
000250 0c 08 0c c1 b9 ea 95 bf f3 78 09 c1 78 55 9c 3f
       -8.751965 -1.1712257 -8.592029 1.2213583
000260 43 12 bd c0 c2 38 5c 41 22 b7 49 41 14 93 d9 40
       -5.908479 13.763857 12.60721 6.799204
000270 b0 f4 27 c0 a7 0a 8a c0 00 32 1f 3f 8e d2 b0 c0
       -2.6243095 -4.3138003 0.6218567 -5.5257025
000280 44 f0 1b 40 cd 3b 79 c1 69 a0 ad 40 c2 a7 99 40
       2.4365396 -15.5771 5.4258313 4.8017282
000290 08 27 a6 40 f1 cb 84 c1 16 ff 2a 41 de 5d ba c0
       5.1922646 -16.59958 10.687277 -5.8239584
0002a0 4c 50 42 c1 6e c4 e5 c0 d9 be 69 c1 00 f2 d6 be
       -12.144604 -7.180228 -14.609094 -0.41981506
0002b0 72 05 22 c1 cb a2 f1 bf 60 f1 8f 40 b3 f4 e2 c0
       -10.126329 -1.8877805 4.4982147 -7.0923705
0002c0 b6 0a 71 3f 11 e6 05 41 8e c0 54 41 b9 23 4b 41
       0.9415697 8.368669 13.29701 12.696221
0002d0 28 0d 62 3e d8 f8 1a c1 e4 94 17 c0 ec 65 3e c1
       0.22075331 -9.685753 -2.3684626 -11.899883
0002e0 cb 9c b2 c0 13 95 dc 40 36 c9 fd 40 46 f9 33 41
       -5.58164 6.8931975 7.930812 11.248358
0002f0 77 c6 3a c1 e6 21 bf 40 f8 91 23 c1 d7 f0 ac c0
       -11.673453 5.972888 -10.223137 -5.4043994
000300 1a 5c 80 40 79 d9 3a 41 96 56 fa bf af bd a1 40
       4.011243 11.678094 -1.9557674 5.0544047
000310 21 32 e1 3f 82 a4 8c c0 f6 8d d3 c0 80 bd 65 be
       1.7593423 -4.3950815 -6.611079 -0.2243557
000320 a7 b9 1a 3f 24 70 86 41 a0 bb 8d bf 5e 54 75 40
       0.60439533 16.804756 -1.1072884 3.8332744
000330 88 eb 54 3e 0c e5 35 41 08 fa 20 c1 76 9e c4 c0
       0.20792973 11.36842 -10.061043 -6.1443434
000340 24 dd 7e c1 2b 8e 45 c1 6d 50 d2 c0 05 25 60 c1
       -15.928989 -12.347209 -6.5723176 -14.009038
000350 da 6c 55 c1 38 35 e8 40 a0 ef ca 40 e1 da b9 40
       -13.339075 7.2564964 6.341751 5.8079686
000360 d8 4c 1e c0 b5 b2 2a 40 d7 0c 10 40 cc 70 f3 3f
       -2.4734402 2.6671574 2.2507837 1.9018798
000370 4f 3f d9 40 00 34 21 c1 ee b9 2c 41 1c d3 66 40
       6.788978 -10.075195 10.795393 3.606635
000380 43 8a 45 41 c8 74 74 41 d0 a5 93 c0 b2 73 27 c1
       12.346255 15.278511 -4.613991 -10.465746
000390 3e c3 1c c0 77 ef 0a c1 a8 08 26 41 4a 74 1b 41
       -2.4494166 -8.683463 10.377113 9.715891
0003a0 e4 67 2c 41 2a 3b 12 c0 bc e4 51 c1 dd 6f 82 c0
       10.775364 -2.284861 -13.118343 -4.076155
0003b0 fa de ac 40 e4 0e 83 40 c3 aa 1b 41 94 a3 df 40
       5.402219 4.0955677 9.72919 6.988718
0003c0 a3 51 21 c1 81 c8 94 bf 3d d9 1b 40 ad 1d 5d 40
       -10.082431 -1.1623689 2.4351342 3.4549363
0003d0 f9 7f 2e c0 a7 d9 0c c1 74 62 a6 c0 06 6d ee 40
       -2.7265608 -8.803138 -5.199518 7.4508085
0003e0 f2 7b 31 c1 f4 e9 3b 3f ac 33 8d 40 e6 ed 81 c1
       -11.09276 0.7340386 4.4125576 -16.241161
0003f0 91 0b b0 c0 b6 f0 04 c1 39 97 47 40 46 ed e5 40
       -5.501412 -8.308767 3.118605 7.185214

exp_avg_sq f4 [400]
000000 01 42 30 40 65 70 69 41 e0 94 9e 42 1a 8d 71 42
       2.7540286 14.58994 79.29077 60.387794
000010 1e f8 8d 41 98 10 fa 40 5c 8c e4 40 a3 7c 43 42
       17.746151 7.8145256 7.1421337 48.871716
000020 97 b3 4d 42 44 85 2f 43 c9 2a f2 42 2b 31 ad 41
       51.42538 175.52057 121.083565 21.649008
000030 be ed 2b 42 69 5c 68 42 d9 b9 bc 42 ca 0e de 40
       42.98217 58.090244 94.36298 6.9393053
000040 e6 1a 8d 42 0d 1a 77 42 ec c7 45 40 87 80 0e 41
       70.552536 61.77544 3.0903273 8.906379
000050 6a 52 a0 41 fa f6 cb 40 e4 68 80 41 b0 da 60 41
       20.040241 6.3738985 16.051216 14.0533905
000060 a1 fa 8c 40 75 74 50 43 2c fa 32 42 48 54 71 40
       4.4055943 208.45491 44.74431 3.7707691
000070 8b 7e d5 41 e0 87 c2 42 d9 eb a0 42 58 14 0b 42
       26.686789 97.26538 80.46064 34.769867
000080 de ba 1c 43 fe 20 13 43 71 59 83 43 69 80 63 42
       156.72995 147.12888 262.69876 56.8754
000090 4f aa 54 42 69 b2 88 42 a5 e3 07 42 af 09 c9 42
       53.166317 68.34846 33.97231 100.51891
0000a0 04 ea a8 42 71 52 a8 40 b9 8e 82 41 9a f0 ef 41
       84.45706 5.2600636 16.319689 29.992481
0000b0 46 e2 5c 43 4b 83 b1 41 1c 40 70 40 81 91 71 41
       220.88388 22.189108 3.753913 15.098023
0000c0 bf 7d 1c 43 58 fe 31 42 54 8a 6a 41 7d c4 4c 42
       156.4912 44.498383 14.6587715 51.191883
0000d0 81 d8 dc 40 07 bf c4 40 05 03 b9 42 2c 93 36 42
       6.9014287 6.148319 92.5059 45.643723
0000e0 b0 55 9c 40 9e c8 9e 41 a9 f6 cf 41 80 b8 8b 40
       4.88546 19.847958 25.99544 4.366272
0000f0 9c 6a 3c 42 e6 9a e3 41 ba 27 23 43 fe 27 5e 41
       47.10411 28.450634 163.15518 13.884764
000100 ed 53 92 41 9e a2 ac 40 7e 91 4e 42 df f4 9a 41
       18.29098 5.3948507 51.642082 19.369566
000110 b3 b2 42 43 70 5e 85 43 78 b5 ca 40 67 f8 2e 42
       194.69804 266.7378 6.334652 43.74258
000120 d9 ea e4 41 4b 73 92 42 92 35 16 43 98 33 4c 43
       28.614672 73.22518 150.20926 204.20154
000130 dd 1c 5c 40 25 b4 20 43 35 5e 13 43 3a 87 90 42
       3.4392617 160.70369 147.368 72.264114
000140 cb 83 e1 41 94 3b 0f 41 4a 6b d5 42 b6 7e de 41
       28.189352 8.952045 106.70955 27.81187
000150 07 db 18 43 3e d6 77 41 66 e5 81 41 8e c5 9a 40
       152.85558 15.489805 16.237011 4.8366156
000160 15 17 39 40 46 15 89 43 82 98 35 42 f5 fb b9 41
       2.8920338 274.1662 45.398933 23.248026
000170 f9 33 b5 42 9b 79 4f 41 c7 45 d1 40 1a 32 0b 41
       90.60151 12.967189 6.5397677 8.699732
000180 dc 60 6c 43 90 e2 1c 42 8e cb a5 41 e7 e5 86 41
       236.37836 39.221252 20.724392 16.862257
000190 df b5 37 42 08 af 96 42 66 23 86 42 22 b1 c1 41
       45.92761 75.34186 67.06914 24.21149
0001a0 c3 12 00 41 08 8c 06 41 1d 81 3c 41 02 58 47 43
       8.0045805 8.409187 11.781522 199.34378
0001b0 e6 d0 e2 40 5e 77 38 41 e8 06 cf 42 03 c1 06 42
       7.0880003 11.529142 103.51349 33.688488
0001c0 7e 55 13 42 da b1 94 42 fe c5 d8 41 92 ee 83 43
       36.83349 74.34737 27.096676 263.86383
0001d0 66 30 b6 40 f3 fa 10 41 2e a0 f7 42 38 ba 85 42
       5.693408 9.061267 123.81285 66.86371
0001e0 86 a1 6d 42 89 aa ec 42 36 1d 40 42 16 b6 83 42
       59.407738 118.33308 48.028526 65.85564
0001f0 4d 65 83 41 12 71 eb 42 03 40 70 41 db 15 86 41
       16.424463 117.72084 15.015628 16.760672
000200 9c 63 d1 42 1f 21 f0 41 0f 7a ae 41 30 74 d5 42
       104.69455 30.016172 21.809599 106.72693
000210 44 34 8b 42 7c ba 4e 42 de d0 bb 42 ac 65 ab 43
       69.60208 51.682114 93.90794 342.7943
000220 86 6c 84 42 80 7f a6 42 a2 78 9e 41 9c 20 08 43
       66.21196 83.24902 19.808903 136.12738
000230 30 95 12 43 35 6f 2a 42 db 59 8c 40 4e 04 96 42
       146.58276 42.6086 4.3859687 75.00841
000240 b4 17 ea 40 25 69 8b 42 25 44 ad 42 cf 4d 46 43
       7.3153934 69.70536 86.633095 198.30394
000250 1d 91 83 42 83 fb 05 42 be 56 77 42 2b 5e 65 41
       65.783424 33.495617 61.83471 14.33549
000260 6c 3f 83 42 b4 df 84 42 c8 00 cb 42 85 37 e7 41
       65.62387 66.43692 101.501526 28.90211
000270 ee d3 a0 40 06 d6 54 41 de 8e 13 41 72 89 6b 42
       5.0258703 13.302252 9.22238 58.884224
000280 c5 de bb 40 09 0a 4b 43 10 c7 4e 42 57 e3 9e 41
       5.8709435 203.0392 51.694397 19.861006
000290 92 e3 b5 41 a4 dc dc 42 f8 0b 92 42 dd e7 26 42
       22.736118 110.43094 73.02338 41.72643
0002a0 6b 4d 26 43 05 d2 90 42 b5 80 35 42 30 1b bd 40
       166.30241 72.410194 45.37569 5.909569
0002b0 34 2a c6 42 cf 1e 92 42 a4 a7 93 41 fe c1 4a 42
       99.08243 73.06017 18.456856 50.689445
0002c0 82 f3 84 41 8f 5d 76 42 58 21 59 43 c8 72 38 43
       16.6189 61.591366 217.13025 184.44836
0002d0 b3 52 c7 40 68 39 b8 41 13 22 ec 40 e1 5f 03 43
       6.228845 23.02803 7.3791595 131.37453
0002e0 a5 6c aa 41 e0 33 a1 41 57 5d 26 43 4c eb e8 42
       21.30305 20.15033 166.36461 116.459564
0002f0 1d 47 11 43 40 ba 4e 42 c1 d8 c8 42 0f f5 e8 42
       145.27779 51.681885 100.42335 116.47863
000300 09 9c 60 42 70 81 27 43 b7 b0 b7 40 8c c5 a1 42
       56.152378 167.50562 5.7403216 80.88583
000310 49 6c cc 40 5d a8 00 42 cc 22 79 42 1a 36 08 41
       6.3882184 32.164417 62.28398 8.513208
000320 64 ca 1f 41 99 c8 87 43 fa ac 2e 41 86 b2 d3 40
       9.986912 271.56717 10.917231 6.6155424
000330 96 b0 53 40 88 14 84 43 94 62 8c 42 05 cc ea 41
       3.307653 264.1604 70.192535 29.349619
000340 33 94 d7 42 3c 45 03 43 33 58 62 42 1d f3 b2 42
       107.78945 131.27045 56.586132 89.47483
000350 44 87 8a 42 80 bc 8d 41 92 a2 ae 41 6a 8f 6b 42
       69.26419 17.717041 21.82938 58.890053
000360 84 0f 0a 42 5c 08 bf 41 20 d2 05 42 8f 0c 54 40
       34.515152 23.879082 33.4552 3.3132665
000370 46 81 72 42 9e aa 09 43 37 28 ea 42 7c 8e e1 40
       60.626244 137.66647 117.078545 7.048643
000380 ce 18 cf 42 cc 35 00 44 bb 25 a2 42 8e 59 19 43
       103.54845 512.8406 81.07369 153.34982
000390 a6 fe 07 42 da 87 a6 42 5e 1a 77 42 85 91 68 42
       33.99868 83.265335 61.77575 58.14211
0003a0 cb 0b e7 42 9f 01 50 41 41 8e 40 43 d8 55 d8 41
       115.52303 13.000396 192.55568 27.041916
0003b0 e4 c7 5a 42 f0 16 b5 41 ab 52 d8 42 af f2 e7 41
       54.695206 22.6362 108.16146 28.993498
0003c0 f8 4a 33 43 1d cb d6 40 e4 4f 56 40 c6 25 4d 41
       179.29285 6.712294 3.3486261 12.821722
0003d0 5e de 4b 41 87 8d c2 42 9a bc 13 42 df b1 d9 41
       12.741789 97.27642 36.93418 27.211851
0003e0 d8 92 04 43 72 e7 ef 40 9e 87 aa 41 ee f2 11 43
       132.57361 7.4970026 21.31622 145.94894
0003f0 7f 87 92 41 52 f6 2b 42 7f 14 9a 41 32 c5 89 42
       18.31616 42.990547 19.260008 68.88515
